…
I0502 11:39:01.098368 31177 upgrade_proto.cpp:69] Successfully upgraded file specified using deprecated input fields.
W0502 11:39:01.098372 31177 upgrade_proto.cpp:71] Note that future Caffe releases will only support input layers and not input fields.
I0502 11:39:01.099143 31177 net.cpp:58] Initializing net from parameters: 
name: "PVANET"
state {
  phase: TEST
  level: 0
}
layer {
  name: "input"
  type: "Input"
  top: "data"
  top: "im_info"
  input_param {
    shape {
      dim: 1
      dim: 3
      dim: 640
      dim: 1056
    }
    shape {
      dim: 1
      dim: 6
    }
  }
}
layer {
  name: "conv1_1/conv"
  type: "Convolution"
  bottom: "data"
  top: "conv1_1/conv"
  param {
    lr_mult: 0.1
    decay_mult: 0.1
  }
  convolution_param {
    num_output: 16
    bias_term: true
    weight_filler {
      type: "xavier"
    }
    pad_h: 3
    pad_w: 3
    kernel_h: 7
    kernel_w: 7
    stride_h: 2
    stride_w: 2
  }
}
layer {
  name: "conv1_1/neg"
  type: "Power"
  bottom: "conv1_1/conv"
  top: "conv1_1/neg"
  power_param {
    power: 1
    scale: -1
    shift: 0
  }
}
layer {
  name: "conv1_1/concat"
  type: "Concat"
  bottom: "conv1_1/conv"
  bottom: "conv1_1/neg"
  top: "conv1_1"
}
layer {
  name: "conv1_1/scale"
  type: "Scale"
  bottom: "conv1_1"
  top: "conv1_1"
  param {
    lr_mult: 0.1
    decay_mult: 0
  }
  param {
    lr_mult: 0.2
    decay_mult: 0
  }
  scale_param {
    bias_term: true
  }
}
layer {
  name: "conv1_1/relu"
  type: "ReLU"
  bottom: "conv1_1"
  top: "conv1_1"
}
layer {
  name: "pool1"
  type: "Pooling"
  bottom: "conv1_1"
  top: "pool1"
  pooling_param {
    pool: MAX
    kernel_size: 3
    stride: 2
    pad: 0
  }
}
layer {
  name: "conv2_1/1/conv"
  type: "Convolution"
  bottom: "pool1"
  top: "conv2_1/1"
  param {
    lr_mult: 0.1
    decay_mult: 0.1
  }
  convolution_param {
    num_output: 24
    bias_term: true
    weight_filler {
      type: "xavier"
    }
    pad_h: 0
    pad_w: 0
    kernel_h: 1
    kernel_w: 1
    stride_h: 1
    stride_w: 1
  }
}
layer {
  name: "conv2_1/1/relu"
  type: "ReLU"
  bottom: "conv2_1/1"
  top: "conv2_1/1"
}
layer {
  name: "conv2_1/2/conv"
  type: "Convolution"
  bottom: "conv2_1/1"
  top: "conv2_1/2/conv"
  param {
    lr_mult: 0.1
    decay_mult: 0.1
  }
  convolution_param {
    num_output: 24
    bias_term: true
    weight_filler {
      type: "xavier"
    }
    pad_h: 1
    pad_w: 1
    kernel_h: 3
    kernel_w: 3
    stride_h: 1
    stride_w: 1
  }
}
layer {
  name: "conv2_1/2/neg"
  type: "Power"
  bottom: "conv2_1/2/conv"
  top: "conv2_1/2/neg"
  power_param {
    power: 1
    scale: -1
    shift: 0
  }
}
layer {
  name: "conv2_1/2/concat"
  type: "Concat"
  bottom: "conv2_1/2/conv"
  bottom: "conv2_1/2/neg"
  top: "conv2_1/2"
}
layer {
  name: "conv2_1/2/scale"
  type: "Scale"
  bottom: "conv2_1/2"
  top: "conv2_1/2"
  param {
    lr_mult: 0.1
    decay_mult: 0
  }
  param {
    lr_mult: 0.2
    decay_mult: 0
  }
  scale_param {
    bias_term: true
  }
}
layer {
  name: "conv2_1/2/relu"
  type: "ReLU"
  bottom: "conv2_1/2"
  top: "conv2_1/2"
}
layer {
  name: "conv2_1/3/conv"
  type: "Convolution"
  bottom: "conv2_1/2"
  top: "conv2_1/3"
  param {
    lr_mult: 0.1
    decay_mult: 0.1
  }
  convolution_param {
    num_output: 64
    bias_term: true
    weight_filler {
      type: "xavier"
    }
    pad_h: 0
    pad_w: 0
    kernel_h: 1
    kernel_w: 1
    stride_h: 1
    stride_w: 1
  }
}
layer {
  name: "conv2_1/proj"
  type: "Convolution"
  bottom: "pool1"
  top: "conv2_1/proj"
  param {
    lr_mult: 0.1
    decay_mult: 0.1
  }
  param {
    lr_mult: 0.2
    decay_mult: 0
  }
  convolution_param {
    num_output: 64
    weight_filler {
      type: "xavier"
    }
    bias_filler {
      type: "constant"
      value: 0.1
    }
    pad_h: 0
    pad_w: 0
    kernel_h: 1
    kernel_w: 1
    stride_h: 1
    stride_w: 1
  }
}
layer {
  name: "conv2_1"
  type: "Eltwise"
  bottom: "conv2_1/3"
  bottom: "conv2_1/proj"
  top: "conv2_1"
  eltwise_param {
    operation: SUM
    coeff: 1
    coeff: 1
  }
}
layer {
  name: "conv2_2/1/conv"
  type: "Convolution"
  bottom: "conv2_1"
  top: "conv2_2/1"
  param {
    lr_mult: 0.1
    decay_mult: 0.1
  }
  convolution_param {
    num_output: 24
    bias_term: true
    weight_filler {
      type: "xavier"
    }
    pad_h: 0
    pad_w: 0
    kernel_h: 1
    kernel_w: 1
    stride_h: 1
    stride_w: 1
  }
}
layer {
  name: "conv2_2/1/relu"
  type: "ReLU"
  bottom: "conv2_2/1"
  top: "conv2_2/1"
}
layer {
  name: "conv2_2/2/conv"
  type: "Convolution"
  bottom: "conv2_2/1"
  top: "conv2_2/2/conv"
  param {
    lr_mult: 0.1
    decay_mult: 0.1
  }
  convolution_param {
    num_output: 24
    bias_term: true
    weight_filler {
      type: "xavier"
    }
    pad_h: 1
    pad_w: 1
    kernel_h: 3
    kernel_w: 3
    stride_h: 1
    stride_w: 1
  }
}
layer {
  name: "conv2_2/2/neg"
  type: "Power"
  bottom: "conv2_2/2/conv"
  top: "conv2_2/2/neg"
  power_param {
    power: 1
    scale: -1
    shift: 0
  }
}
layer {
  name: "conv2_2/2/concat"
  type: "Concat"
  bottom: "conv2_2/2/conv"
  bottom: "conv2_2/2/neg"
  top: "conv2_2/2"
}
layer {
  name: "conv2_2/2/scale"
  type: "Scale"
  bottom: "conv2_2/2"
  top: "conv2_2/2"
  param {
    lr_mult: 0.1
    decay_mult: 0
  }
  param {
    lr_mult: 0.2
    decay_mult: 0
  }
  scale_param {
    bias_term: true
  }
}
layer {
  name: "conv2_2/2/relu"
  type: "ReLU"
  bottom: "conv2_2/2"
  top: "conv2_2/2"
}
layer {
  name: "conv2_2/3/conv"
  type: "Convolution"
  bottom: "conv2_2/2"
  top: "conv2_2/3"
  param {
    lr_mult: 0.1
    decay_mult: 0.1
  }
  convolution_param {
    num_output: 64
    bias_term: true
    weight_filler {
      type: "xavier"
    }
    pad_h: 0
    pad_w: 0
    kernel_h: 1
    kernel_w: 1
    stride_h: 1
    stride_w: 1
  }
}
layer {
  name: "conv2_2"
  type: "Eltwise"
  bottom: "conv2_2/3"
  bottom: "conv2_1"
  top: "conv2_2"
  eltwise_param {
    operation: SUM
    coeff: 1
    coeff: 1
  }
}
layer {
  name: "conv2_3/1/conv"
  type: "Convolution"
  bottom: "conv2_2"
  top: "conv2_3/1"
  param {
    lr_mult: 0.1
    decay_mult: 0.1
  }
  convolution_param {
    num_output: 24
    bias_term: true
    weight_filler {
      type: "xavier"
    }
    pad_h: 0
    pad_w: 0
    kernel_h: 1
    kernel_w: 1
    stride_h: 1
    stride_w: 1
  }
}
layer {
  name: "conv2_3/1/relu"
  type: "ReLU"
  bottom: "conv2_3/1"
  top: "conv2_3/1"
}
layer {
  name: "conv2_3/2/conv"
  type: "Convolution"
  bottom: "conv2_3/1"
  top: "conv2_3/2/conv"
  param {
    lr_mult: 0.1
    decay_mult: 0.1
  }
  convolution_param {
    num_output: 24
    bias_term: true
    weight_filler {
      type: "xavier"
    }
    pad_h: 1
    pad_w: 1
    kernel_h: 3
    kernel_w: 3
    stride_h: 1
    stride_w: 1
  }
}
layer {
  name: "conv2_3/2/neg"
  type: "Power"
  bottom: "conv2_3/2/conv"
  top: "conv2_3/2/neg"
  power_param {
    power: 1
    scale: -1
    shift: 0
  }
}
layer {
  name: "conv2_3/2/concat"
  type: "Concat"
  bottom: "conv2_3/2/conv"
  bottom: "conv2_3/2/neg"
  top: "conv2_3/2"
}
layer {
  name: "conv2_3/2/scale"
  type: "Scale"
  bottom: "conv2_3/2"
  top: "conv2_3/2"
  param {
    lr_mult: 0.1
    decay_mult: 0
  }
  param {
    lr_mult: 0.2
    decay_mult: 0
  }
  scale_param {
    bias_term: true
  }
}
layer {
  name: "conv2_3/2/relu"
  type: "ReLU"
  bottom: "conv2_3/2"
  top: "conv2_3/2"
}
layer {
  name: "conv2_3/3/conv"
  type: "Convolution"
  bottom: "conv2_3/2"
  top: "conv2_3/3"
  param {
    lr_mult: 0.1
    decay_mult: 0.1
  }
  convolution_param {
    num_output: 64
    bias_term: true
    weight_filler {
      type: "xavier"
    }
    pad_h: 0
    pad_w: 0
    kernel_h: 1
    kernel_w: 1
    stride_h: 1
    stride_w: 1
  }
}
layer {
  name: "conv2_3"
  type: "Eltwise"
  bottom: "conv2_3/3"
  bottom: "conv2_2"
  top: "conv2_3"
  eltwise_param {
    operation: SUM
    coeff: 1
    coeff: 1
  }
}
layer {
  name: "conv3_1/1/conv"
  type: "Convolution"
  bottom: "conv2_3"
  top: "conv3_1/1"
  param {
    lr_mult: 0.1
    decay_mult: 0.1
  }
  convolution_param {
    num_output: 48
    bias_term: true
    weight_filler {
      type: "xavier"
    }
    pad_h: 0
    pad_w: 0
    kernel_h: 1
    kernel_w: 1
    stride_h: 2
    stride_w: 2
  }
}
layer {
  name: "conv3_1/1/relu"
  type: "ReLU"
  bottom: "conv3_1/1"
  top: "conv3_1/1"
}
layer {
  name: "conv3_1/2/conv"
  type: "Convolution"
  bottom: "conv3_1/1"
  top: "conv3_1/2/conv"
  param {
    lr_mult: 0.1
    decay_mult: 0.1
  }
  convolution_param {
    num_output: 48
    bias_term: true
    weight_filler {
      type: "xavier"
    }
    pad_h: 1
    pad_w: 1
    kernel_h: 3
    kernel_w: 3
    stride_h: 1
    stride_w: 1
  }
}
layer {
  name: "conv3_1/2/neg"
  type: "Power"
  bottom: "conv3_1/2/conv"
  top: "conv3_1/2/neg"
  power_param {
    power: 1
    scale: -1
    shift: 0
  }
}
layer {
  name: "conv3_1/2/concat"
  type: "Concat"
  bottom: "conv3_1/2/conv"
  bottom: "conv3_1/2/neg"
  top: "conv3_1/2"
}
layer {
  name: "conv3_1/2/scale"
  type: "Scale"
  bottom: "conv3_1/2"
  top: "conv3_1/2"
  param {
    lr_mult: 0.1
    decay_mult: 0
  }
  param {
    lr_mult: 0.2
    decay_mult: 0
  }
  scale_param {
    bias_term: true
  }
}
layer {
  name: "conv3_1/2/relu"
  type: "ReLU"
  bottom: "conv3_1/2"
  top: "conv3_1/2"
}
layer {
  name: "conv3_1/3/conv"
  type: "Convolution"
  bottom: "conv3_1/2"
  top: "conv3_1/3"
  param {
    lr_mult: 0.1
    decay_mult: 0.1
  }
  convolution_param {
    num_output: 128
    bias_term: true
    weight_filler {
      type: "xavier"
    }
    pad_h: 0
    pad_w: 0
    kernel_h: 1
    kernel_w: 1
    stride_h: 1
    stride_w: 1
  }
}
layer {
  name: "conv3_1/proj"
  type: "Convolution"
  bottom: "conv2_3"
  top: "conv3_1/proj"
  param {
    lr_mult: 0.1
    decay_mult: 0.1
  }
  param {
    lr_mult: 0.2
    decay_mult: 0
  }
  convolution_param {
    num_output: 128
    weight_filler {
      type: "xavier"
    }
    bias_filler {
      type: "constant"
      value: 0.1
    }
    pad_h: 0
    pad_w: 0
    kernel_h: 1
    kernel_w: 1
    stride_h: 2
    stride_w: 2
  }
}
layer {
  name: "conv3_1"
  type: "Eltwise"
  bottom: "conv3_1/3"
  bottom: "conv3_1/proj"
  top: "conv3_1"
  eltwise_param {
    operation: SUM
    coeff: 1
    coeff: 1
  }
}
layer {
  name: "conv3_2/1/conv"
  type: "Convolution"
  bottom: "conv3_1"
  top: "conv3_2/1"
  param {
    lr_mult: 0.1
    decay_mult: 0.1
  }
  convolution_param {
    num_output: 48
    bias_term: true
    weight_filler {
      type: "xavier"
    }
    pad_h: 0
    pad_w: 0
    kernel_h: 1
    kernel_w: 1
    stride_h: 1
    stride_w: 1
  }
}
layer {
  name: "conv3_2/1/relu"
  type: "ReLU"
  bottom: "conv3_2/1"
  top: "conv3_2/1"
}
layer {
  name: "conv3_2/2/conv"
  type: "Convolution"
  bottom: "conv3_2/1"
  top: "conv3_2/2/conv"
  param {
    lr_mult: 0.1
    decay_mult: 0.1
  }
  convolution_param {
    num_output: 48
    bias_term: true
    weight_filler {
      type: "xavier"
    }
    pad_h: 1
    pad_w: 1
    kernel_h: 3
    kernel_w: 3
    stride_h: 1
    stride_w: 1
  }
}
layer {
  name: "conv3_2/2/neg"
  type: "Power"
  bottom: "conv3_2/2/conv"
  top: "conv3_2/2/neg"
  power_param {
    power: 1
    scale: -1
    shift: 0
  }
}
layer {
  name: "conv3_2/2/concat"
  type: "Concat"
  bottom: "conv3_2/2/conv"
  bottom: "conv3_2/2/neg"
  top: "conv3_2/2"
}
layer {
  name: "conv3_2/2/scale"
  type: "Scale"
  bottom: "conv3_2/2"
  top: "conv3_2/2"
  param {
    lr_mult: 0.1
    decay_mult: 0
  }
  param {
    lr_mult: 0.2
    decay_mult: 0
  }
  scale_param {
    bias_term: true
  }
}
layer {
  name: "conv3_2/2/relu"
  type: "ReLU"
  bottom: "conv3_2/2"
  top: "conv3_2/2"
}
layer {
  name: "conv3_2/3/conv"
  type: "Convolution"
  bottom: "conv3_2/2"
  top: "conv3_2/3"
  param {
    lr_mult: 0.1
    decay_mult: 0.1
  }
  convolution_param {
    num_output: 128
    bias_term: true
    weight_filler {
      type: "xavier"
    }
    pad_h: 0
    pad_w: 0
    kernel_h: 1
    kernel_w: 1
    stride_h: 1
    stride_w: 1
  }
}
layer {
  name: "conv3_2"
  type: "Eltwise"
  bottom: "conv3_2/3"
  bottom: "conv3_1"
  top: "conv3_2"
  eltwise_param {
    operation: SUM
    coeff: 1
    coeff: 1
  }
}
layer {
  name: "conv3_3/1/conv"
  type: "Convolution"
  bottom: "conv3_2"
  top: "conv3_3/1"
  param {
    lr_mult: 0.1
    decay_mult: 0.1
  }
  convolution_param {
    num_output: 48
    bias_term: true
    weight_filler {
      type: "xavier"
    }
    pad_h: 0
    pad_w: 0
    kernel_h: 1
    kernel_w: 1
    stride_h: 1
    stride_w: 1
  }
}
layer {
  name: "conv3_3/1/relu"
  type: "ReLU"
  bottom: "conv3_3/1"
  top: "conv3_3/1"
}
layer {
  name: "conv3_3/2/conv"
  type: "Convolution"
  bottom: "conv3_3/1"
  top: "conv3_3/2/conv"
  param {
    lr_mult: 0.1
    decay_mult: 0.1
  }
  convolution_param {
    num_output: 48
    bias_term: true
    weight_filler {
      type: "xavier"
    }
    pad_h: 1
    pad_w: 1
    kernel_h: 3
    kernel_w: 3
    stride_h: 1
    stride_w: 1
  }
}
layer {
  name: "conv3_3/2/neg"
  type: "Power"
  bottom: "conv3_3/2/conv"
  top: "conv3_3/2/neg"
  power_param {
    power: 1
    scale: -1
    shift: 0
  }
}
layer {
  name: "conv3_3/2/concat"
  type: "Concat"
  bottom: "conv3_3/2/conv"
  bottom: "conv3_3/2/neg"
  top: "conv3_3/2"
}
layer {
  name: "conv3_3/2/scale"
  type: "Scale"
  bottom: "conv3_3/2"
  top: "conv3_3/2"
  param {
    lr_mult: 0.1
    decay_mult: 0
  }
  param {
    lr_mult: 0.2
    decay_mult: 0
  }
  scale_param {
    bias_term: true
  }
}
layer {
  name: "conv3_3/2/relu"
  type: "ReLU"
  bottom: "conv3_3/2"
  top: "conv3_3/2"
}
layer {
  name: "conv3_3/3/conv"
  type: "Convolution"
  bottom: "conv3_3/2"
  top: "conv3_3/3"
  param {
    lr_mult: 0.1
    decay_mult: 0.1
  }
  convolution_param {
    num_output: 128
    bias_term: true
    weight_filler {
      type: "xavier"
    }
    pad_h: 0
    pad_w: 0
    kernel_h: 1
    kernel_w: 1
    stride_h: 1
    stride_w: 1
  }
}
layer {
  name: "conv3_3"
  type: "Eltwise"
  bottom: "conv3_3/3"
  bottom: "conv3_2"
  top: "conv3_3"
  eltwise_param {
    operation: SUM
    coeff: 1
    coeff: 1
  }
}
layer {
  name: "conv3_4/1/conv"
  type: "Convolution"
  bottom: "conv3_3"
  top: "conv3_4/1"
  param {
    lr_mult: 0.1
    decay_mult: 0.1
  }
  convolution_param {
    num_output: 48
    bias_term: true
    weight_filler {
      type: "xavier"
    }
    pad_h: 0
    pad_w: 0
    kernel_h: 1
    kernel_w: 1
    stride_h: 1
    stride_w: 1
  }
}
layer {
  name: "conv3_4/1/relu"
  type: "ReLU"
  bottom: "conv3_4/1"
  top: "conv3_4/1"
}
layer {
  name: "conv3_4/2/conv"
  type: "Convolution"
  bottom: "conv3_4/1"
  top: "conv3_4/2/conv"
  param {
    lr_mult: 0.1
    decay_mult: 0.1
  }
  convolution_param {
    num_output: 48
    bias_term: true
    weight_filler {
      type: "xavier"
    }
    pad_h: 1
    pad_w: 1
    kernel_h: 3
    kernel_w: 3
    stride_h: 1
    stride_w: 1
  }
}
layer {
  name: "conv3_4/2/neg"
  type: "Power"
  bottom: "conv3_4/2/conv"
  top: "conv3_4/2/neg"
  power_param {
    power: 1
    scale: -1
    shift: 0
  }
}
layer {
  name: "conv3_4/2/concat"
  type: "Concat"
  bottom: "conv3_4/2/conv"
  bottom: "conv3_4/2/neg"
  top: "conv3_4/2"
}
layer {
  name: "conv3_4/2/scale"
  type: "Scale"
  bottom: "conv3_4/2"
  top: "conv3_4/2"
  param {
    lr_mult: 0.1
    decay_mult: 0
  }
  param {
    lr_mult: 0.2
    decay_mult: 0
  }
  scale_param {
    bias_term: true
  }
}
layer {
  name: "conv3_4/2/relu"
  type: "ReLU"
  bottom: "conv3_4/2"
  top: "conv3_4/2"
}
layer {
  name: "conv3_4/3/conv"
  type: "Convolution"
  bottom: "conv3_4/2"
  top: "conv3_4/3"
  param {
    lr_mult: 0.1
    decay_mult: 0.1
  }
  convolution_param {
    num_output: 128
    bias_term: true
    weight_filler {
      type: "xavier"
    }
    pad_h: 0
    pad_w: 0
    kernel_h: 1
    kernel_w: 1
    stride_h: 1
    stride_w: 1
  }
}
layer {
  name: "conv3_4"
  type: "Eltwise"
  bottom: "conv3_4/3"
  bottom: "conv3_3"
  top: "conv3_4"
  eltwise_param {
    operation: SUM
    coeff: 1
    coeff: 1
  }
}
layer {
  name: "conv4_1/incep/0/conv"
  type: "Convolution"
  bottom: "conv3_4"
  top: "conv4_1/incep/0"
  param {
    lr_mult: 0.1
    decay_mult: 0.1
  }
  convolution_param {
    num_output: 64
    bias_term: true
    weight_filler {
      type: "xavier"
    }
    pad_h: 0
    pad_w: 0
    kernel_h: 1
    kernel_w: 1
    stride_h: 2
    stride_w: 2
  }
}
layer {
  name: "conv4_1/incep/0/relu"
  type: "ReLU"
  bottom: "conv4_1/incep/0"
  top: "conv4_1/incep/0"
}
layer {
  name: "conv4_1/incep/1_reduce/conv"
  type: "Convolution"
  bottom: "conv3_4"
  top: "conv4_1/incep/1_reduce"
  param {
    lr_mult: 0.1
    decay_mult: 0.1
  }
  convolution_param {
    num_output: 48
    bias_term: true
    weight_filler {
      type: "xavier"
    }
    pad_h: 0
    pad_w: 0
    kernel_h: 1
    kernel_w: 1
    stride_h: 2
    stride_w: 2
  }
}
layer {
  name: "conv4_1/incep/1_reduce/relu"
  type: "ReLU"
  bottom: "conv4_1/incep/1_reduce"
  top: "conv4_1/incep/1_reduce"
}
layer {
  name: "conv4_1/incep/1_0/conv"
  type: "Convolution"
  bottom: "conv4_1/incep/1_reduce"
  top: "conv4_1/incep/1_0"
  param {
    lr_mult: 0.1
    decay_mult: 0.1
  }
  convolution_param {
    num_output: 128
    bias_term: true
    weight_filler {
      type: "xavier"
    }
    pad_h: 1
    pad_w: 1
    kernel_h: 3
    kernel_w: 3
    stride_h: 1
    stride_w: 1
  }
}
layer {
  name: "conv4_1/incep/1_0/relu"
  type: "ReLU"
  bottom: "conv4_1/incep/1_0"
  top: "conv4_1/incep/1_0"
}
layer {
  name: "conv4_1/incep/2_reduce/conv"
  type: "Convolution"
  bottom: "conv3_4"
  top: "conv4_1/incep/2_reduce"
  param {
    lr_mult: 0.1
    decay_mult: 0.1
  }
  convolution_param {
    num_output: 24
    bias_term: true
    weight_filler {
      type: "xavier"
    }
    pad_h: 0
    pad_w: 0
    kernel_h: 1
    kernel_w: 1
    stride_h: 2
    stride_w: 2
  }
}
layer {
  name: "conv4_1/incep/2_reduce/relu"
  type: "ReLU"
  bottom: "conv4_1/incep/2_reduce"
  top: "conv4_1/incep/2_reduce"
}
layer {
  name: "conv4_1/incep/2_0/conv"
  type: "Convolution"
  bottom: "conv4_1/incep/2_reduce"
  top: "conv4_1/incep/2_0"
  param {
    lr_mult: 0.1
    decay_mult: 0.1
  }
  convolution_param {
    num_output: 48
    bias_term: true
    weight_filler {
      type: "xavier"
    }
    pad_h: 1
    pad_w: 1
    kernel_h: 3
    kernel_w: 3
    stride_h: 1
    stride_w: 1
  }
}
layer {
  name: "conv4_1/incep/2_0/relu"
  type: "ReLU"
  bottom: "conv4_1/incep/2_0"
  top: "conv4_1/incep/2_0"
}
layer {
  name: "conv4_1/incep/2_1/conv"
  type: "Convolution"
  bottom: "conv4_1/incep/2_0"
  top: "conv4_1/incep/2_1"
  param {
    lr_mult: 0.1
    decay_mult: 0.1
  }
  convolution_param {
    num_output: 48
    bias_term: true
    weight_filler {
      type: "xavier"
    }
    pad_h: 1
    pad_w: 1
    kernel_h: 3
    kernel_w: 3
    stride_h: 1
    stride_w: 1
  }
}
layer {
  name: "conv4_1/incep/2_1/relu"
  type: "ReLU"
  bottom: "conv4_1/incep/2_1"
  top: "conv4_1/incep/2_1"
}
layer {
  name: "conv4_1/incep/pool"
  type: "Pooling"
  bottom: "conv3_4"
  top: "conv4_1/incep/pool"
  pooling_param {
    pool: MAX
    kernel_size: 3
    stride: 2
    pad: 0
  }
}
layer {
  name: "conv4_1/incep/poolproj/conv"
  type: "Convolution"
  bottom: "conv4_1/incep/pool"
  top: "conv4_1/incep/poolproj"
  param {
    lr_mult: 0.1
    decay_mult: 0.1
  }
  convolution_param {
    num_output: 128
    bias_term: true
    weight_filler {
      type: "xavier"
    }
    pad_h: 0
    pad_w: 0
    kernel_h: 1
    kernel_w: 1
    stride_h: 1
    stride_w: 1
  }
}
layer {
  name: "conv4_1/incep/poolproj/relu"
  type: "ReLU"
  bottom: "conv4_1/incep/poolproj"
  top: "conv4_1/incep/poolproj"
}
layer {
  name: "conv4_1/incep"
  type: "Concat"
  bottom: "conv4_1/incep/0"
  bottom: "conv4_1/incep/1_0"
  bottom: "conv4_1/incep/2_1"
  bottom: "conv4_1/incep/poolproj"
  top: "conv4_1/incep"
}
layer {
  name: "conv4_1/out/conv"
  type: "Convolution"
  bottom: "conv4_1/incep"
  top: "conv4_1/out"
  param {
    lr_mult: 0.1
    decay_mult: 0.1
  }
  convolution_param {
    num_output: 256
    bias_term: true
    weight_filler {
      type: "xavier"
    }
    pad_h: 0
    pad_w: 0
    kernel_h: 1
    kernel_w: 1
    stride_h: 1
    stride_w: 1
  }
}
layer {
  name: "conv4_1/proj"
  type: "Convolution"
  bottom: "conv3_4"
  top: "conv4_1/proj"
  param {
    lr_mult: 0.1
    decay_mult: 0.1
  }
  param {
    lr_mult: 0.2
    decay_mult: 0
  }
  convolution_param {
    num_output: 256
    weight_filler {
      type: "xavier"
    }
    bias_filler {
      type: "constant"
      value: 0.1
    }
    pad_h: 0
    pad_w: 0
    kernel_h: 1
    kernel_w: 1
    stride_h: 2
    stride_w: 2
  }
}
layer {
  name: "conv4_1"
  type: "Eltwise"
  bottom: "conv4_1/out"
  bottom: "conv4_1/proj"
  top: "conv4_1"
  eltwise_param {
    operation: SUM
    coeff: 1
    coeff: 1
  }
}
layer {
  name: "conv4_2/incep/0/conv"
  type: "Convolution"
  bottom: "conv4_1"
  top: "conv4_2/incep/0"
  param {
    lr_mult: 0.1
    decay_mult: 0.1
  }
  convolution_param {
    num_output: 64
    bias_term: true
    weight_filler {
      type: "xavier"
    }
    pad_h: 0
    pad_w: 0
    kernel_h: 1
    kernel_w: 1
    stride_h: 1
    stride_w: 1
  }
}
layer {
  name: "conv4_2/incep/0/relu"
  type: "ReLU"
  bottom: "conv4_2/incep/0"
  top: "conv4_2/incep/0"
}
layer {
  name: "conv4_2/incep/1_reduce/conv"
  type: "Convolution"
  bottom: "conv4_1"
  top: "conv4_2/incep/1_reduce"
  param {
    lr_mult: 0.1
    decay_mult: 0.1
  }
  convolution_param {
    num_output: 64
    bias_term: true
    weight_filler {
      type: "xavier"
    }
    pad_h: 0
    pad_w: 0
    kernel_h: 1
    kernel_w: 1
    stride_h: 1
    stride_w: 1
  }
}
layer {
  name: "conv4_2/incep/1_reduce/relu"
  type: "ReLU"
  bottom: "conv4_2/incep/1_reduce"
  top: "conv4_2/incep/1_reduce"
}
layer {
  name: "conv4_2/incep/1_0/conv"
  type: "Convolution"
  bottom: "conv4_2/incep/1_reduce"
  top: "conv4_2/incep/1_0"
  param {
    lr_mult: 0.1
    decay_mult: 0.1
  }
  convolution_param {
    num_output: 128
    bias_term: true
    weight_filler {
      type: "xavier"
    }
    pad_h: 1
    pad_w: 1
    kernel_h: 3
    kernel_w: 3
    stride_h: 1
    stride_w: 1
  }
}
layer {
  name: "conv4_2/incep/1_0/relu"
  type: "ReLU"
  bottom: "conv4_2/incep/1_0"
  top: "conv4_2/incep/1_0"
}
layer {
  name: "conv4_2/incep/2_reduce/conv"
  type: "Convolution"
  bottom: "conv4_1"
  top: "conv4_2/incep/2_reduce"
  param {
    lr_mult: 0.1
    decay_mult: 0.1
  }
  convolution_param {
    num_output: 24
    bias_term: true
    weight_filler {
      type: "xavier"
    }
    pad_h: 0
    pad_w: 0
    kernel_h: 1
    kernel_w: 1
    stride_h: 1
    stride_w: 1
  }
}
layer {
  name: "conv4_2/incep/2_reduce/relu"
  type: "ReLU"
  bottom: "conv4_2/incep/2_reduce"
  top: "conv4_2/incep/2_reduce"
}
layer {
  name: "conv4_2/incep/2_0/conv"
  type: "Convolution"
  bottom: "conv4_2/incep/2_reduce"
  top: "conv4_2/incep/2_0"
  param {
    lr_mult: 0.1
    decay_mult: 0.1
  }
  convolution_param {
    num_output: 48
    bias_term: true
    weight_filler {
      type: "xavier"
    }
    pad_h: 1
    pad_w: 1
    kernel_h: 3
    kernel_w: 3
    stride_h: 1
    stride_w: 1
  }
}
layer {
  name: "conv4_2/incep/2_0/relu"
  type: "ReLU"
  bottom: "conv4_2/incep/2_0"
  top: "conv4_2/incep/2_0"
}
layer {
  name: "conv4_2/incep/2_1/conv"
  type: "Convolution"
  bottom: "conv4_2/incep/2_0"
  top: "conv4_2/incep/2_1"
  param {
    lr_mult: 0.1
    decay_mult: 0.1
  }
  convolution_param {
    num_output: 48
    bias_term: true
    weight_filler {
      type: "xavier"
    }
    pad_h: 1
    pad_w: 1
    kernel_h: 3
    kernel_w: 3
    stride_h: 1
    stride_w: 1
  }
}
layer {
  name: "conv4_2/incep/2_1/relu"
  type: "ReLU"
  bottom: "conv4_2/incep/2_1"
  top: "conv4_2/incep/2_1"
}
layer {
  name: "conv4_2/incep"
  type: "Concat"
  bottom: "conv4_2/incep/0"
  bottom: "conv4_2/incep/1_0"
  bottom: "conv4_2/incep/2_1"
  top: "conv4_2/incep"
}
layer {
  name: "conv4_2/out/conv"
  type: "Convolution"
  bottom: "conv4_2/incep"
  top: "conv4_2/out"
  param {
    lr_mult: 0.1
    decay_mult: 0.1
  }
  convolution_param {
    num_output: 256
    bias_term: true
    weight_filler {
      type: "xavier"
    }
    pad_h: 0
    pad_w: 0
    kernel_h: 1
    kernel_w: 1
    stride_h: 1
    stride_w: 1
  }
}
layer {
  name: "conv4_2"
  type: "Eltwise"
  bottom: "conv4_2/out"
  bottom: "conv4_1"
  top: "conv4_2"
  eltwise_param {
    operation: SUM
    coeff: 1
    coeff: 1
  }
}
layer {
  name: "conv4_3/incep/0/conv"
  type: "Convolution"
  bottom: "conv4_2"
  top: "conv4_3/incep/0"
  param {
    lr_mult: 0.1
    decay_mult: 0.1
  }
  convolution_param {
    num_output: 64
    bias_term: true
    weight_filler {
      type: "xavier"
    }
    pad_h: 0
    pad_w: 0
    kernel_h: 1
    kernel_w: 1
    stride_h: 1
    stride_w: 1
  }
}
layer {
  name: "conv4_3/incep/0/relu"
  type: "ReLU"
  bottom: "conv4_3/incep/0"
  top: "conv4_3/incep/0"
}
layer {
  name: "conv4_3/incep/1_reduce/conv"
  type: "Convolution"
  bottom: "conv4_2"
  top: "conv4_3/incep/1_reduce"
  param {
    lr_mult: 0.1
    decay_mult: 0.1
  }
  convolution_param {
    num_output: 64
    bias_term: true
    weight_filler {
      type: "xavier"
    }
    pad_h: 0
    pad_w: 0
    kernel_h: 1
    kernel_w: 1
    stride_h: 1
    stride_w: 1
  }
}
layer {
  name: "conv4_3/incep/1_reduce/relu"
  type: "ReLU"
  bottom: "conv4_3/incep/1_reduce"
  top: "conv4_3/incep/1_reduce"
}
layer {
  name: "conv4_3/incep/1_0/conv"
  type: "Convolution"
  bottom: "conv4_3/incep/1_reduce"
  top: "conv4_3/incep/1_0"
  param {
    lr_mult: 0.1
    decay_mult: 0.1
  }
  convolution_param {
    num_output: 128
    bias_term: true
    weight_filler {
      type: "xavier"
    }
    pad_h: 1
    pad_w: 1
    kernel_h: 3
    kernel_w: 3
    stride_h: 1
    stride_w: 1
  }
}
layer {
  name: "conv4_3/incep/1_0/relu"
  type: "ReLU"
  bottom: "conv4_3/incep/1_0"
  top: "conv4_3/incep/1_0"
}
layer {
  name: "conv4_3/incep/2_reduce/conv"
  type: "Convolution"
  bottom: "conv4_2"
  top: "conv4_3/incep/2_reduce"
  param {
    lr_mult: 0.1
    decay_mult: 0.1
  }
  convolution_param {
    num_output: 24
    bias_term: true
    weight_filler {
      type: "xavier"
    }
    pad_h: 0
    pad_w: 0
    kernel_h: 1
    kernel_w: 1
    stride_h: 1
    stride_w: 1
  }
}
layer {
  name: "conv4_3/incep/2_reduce/relu"
  type: "ReLU"
  bottom: "conv4_3/incep/2_reduce"
  top: "conv4_3/incep/2_reduce"
}
layer {
  name: "conv4_3/incep/2_0/conv"
  type: "Convolution"
  bottom: "conv4_3/incep/2_reduce"
  top: "conv4_3/incep/2_0"
  param {
    lr_mult: 0.1
    decay_mult: 0.1
  }
  convolution_param {
    num_output: 48
    bias_term: true
    weight_filler {
      type: "xavier"
    }
    pad_h: 1
    pad_w: 1
    kernel_h: 3
    kernel_w: 3
    stride_h: 1
    stride_w: 1
  }
}
layer {
  name: "conv4_3/incep/2_0/relu"
  type: "ReLU"
  bottom: "conv4_3/incep/2_0"
  top: "conv4_3/incep/2_0"
}
layer {
  name: "conv4_3/incep/2_1/conv"
  type: "Convolution"
  bottom: "conv4_3/incep/2_0"
  top: "conv4_3/incep/2_1"
  param {
    lr_mult: 0.1
    decay_mult: 0.1
  }
  convolution_param {
    num_output: 48
    bias_term: true
    weight_filler {
      type: "xavier"
    }
    pad_h: 1
    pad_w: 1
    kernel_h: 3
    kernel_w: 3
    stride_h: 1
    stride_w: 1
  }
}
layer {
  name: "conv4_3/incep/2_1/relu"
  type: "ReLU"
  bottom: "conv4_3/incep/2_1"
  top: "conv4_3/incep/2_1"
}
layer {
  name: "conv4_3/incep"
  type: "Concat"
  bottom: "conv4_3/incep/0"
  bottom: "conv4_3/incep/1_0"
  bottom: "conv4_3/incep/2_1"
  top: "conv4_3/incep"
}
layer {
  name: "conv4_3/out/conv"
  type: "Convolution"
  bottom: "conv4_3/incep"
  top: "conv4_3/out"
  param {
    lr_mult: 0.1
    decay_mult: 0.1
  }
  convolution_param {
    num_output: 256
    bias_term: true
    weight_filler {
      type: "xavier"
    }
    pad_h: 0
    pad_w: 0
    kernel_h: 1
    kernel_w: 1
    stride_h: 1
    stride_w: 1
  }
}
layer {
  name: "conv4_3"
  type: "Eltwise"
  bottom: "conv4_3/out"
  bottom: "conv4_2"
  top: "conv4_3"
  eltwise_param {
    operation: SUM
    coeff: 1
    coeff: 1
  }
}
layer {
  name: "conv4_4/incep/0/conv"
  type: "Convolution"
  bottom: "conv4_3"
  top: "conv4_4/incep/0"
  param {
    lr_mult: 0.1
    decay_mult: 0.1
  }
  convolution_param {
    num_output: 64
    bias_term: true
    weight_filler {
      type: "xavier"
    }
    pad_h: 0
    pad_w: 0
    kernel_h: 1
    kernel_w: 1
    stride_h: 1
    stride_w: 1
  }
}
layer {
  name: "conv4_4/incep/0/relu"
  type: "ReLU"
  bottom: "conv4_4/incep/0"
  top: "conv4_4/incep/0"
}
layer {
  name: "conv4_4/incep/1_reduce/conv"
  type: "Convolution"
  bottom: "conv4_3"
  top: "conv4_4/incep/1_reduce"
  param {
    lr_mult: 0.1
    decay_mult: 0.1
  }
  convolution_param {
    num_output: 64
    bias_term: true
    weight_filler {
      type: "xavier"
    }
    pad_h: 0
    pad_w: 0
    kernel_h: 1
    kernel_w: 1
    stride_h: 1
    stride_w: 1
  }
}
layer {
  name: "conv4_4/incep/1_reduce/relu"
  type: "ReLU"
  bottom: "conv4_4/incep/1_reduce"
  top: "conv4_4/incep/1_reduce"
}
layer {
  name: "conv4_4/incep/1_0/conv"
  type: "Convolution"
  bottom: "conv4_4/incep/1_reduce"
  top: "conv4_4/incep/1_0"
  param {
    lr_mult: 0.1
    decay_mult: 0.1
  }
  convolution_param {
    num_output: 128
    bias_term: true
    weight_filler {
      type: "xavier"
    }
    pad_h: 1
    pad_w: 1
    kernel_h: 3
    kernel_w: 3
    stride_h: 1
    stride_w: 1
  }
}
layer {
  name: "conv4_4/incep/1_0/relu"
  type: "ReLU"
  bottom: "conv4_4/incep/1_0"
  top: "conv4_4/incep/1_0"
}
layer {
  name: "conv4_4/incep/2_reduce/conv"
  type: "Convolution"
  bottom: "conv4_3"
  top: "conv4_4/incep/2_reduce"
  param {
    lr_mult: 0.1
    decay_mult: 0.1
  }
  convolution_param {
    num_output: 24
    bias_term: true
    weight_filler {
      type: "xavier"
    }
    pad_h: 0
    pad_w: 0
    kernel_h: 1
    kernel_w: 1
    stride_h: 1
    stride_w: 1
  }
}
layer {
  name: "conv4_4/incep/2_reduce/relu"
  type: "ReLU"
  bottom: "conv4_4/incep/2_reduce"
  top: "conv4_4/incep/2_reduce"
}
layer {
  name: "conv4_4/incep/2_0/conv"
  type: "Conv
I0502 11:39:01.099886 31177 layer_factory.hpp:77] Creating layer input
I0502 11:39:01.099897 31177 net.cpp:100] Creating Layer input
I0502 11:39:01.099900 31177 net.cpp:408] input -> data
I0502 11:39:01.099910 31177 net.cpp:408] input -> im_info
I0502 11:39:01.099918 31177 net.cpp:150] Setting up input
I0502 11:39:01.099921 31177 net.cpp:157] Top shape: 1 3 640 1056 (2027520)
I0502 11:39:01.099925 31177 net.cpp:157] Top shape: 1 6 (6)
I0502 11:39:01.099925 31177 net.cpp:165] Memory required for data: 8110104
I0502 11:39:01.099927 31177 layer_factory.hpp:77] Creating layer conv1_1/conv
I0502 11:39:01.099932 31177 net.cpp:100] Creating Layer conv1_1/conv
I0502 11:39:01.099934 31177 net.cpp:434] conv1_1/conv <- data
I0502 11:39:01.099937 31177 net.cpp:408] conv1_1/conv -> conv1_1/conv
I0502 11:39:01.100388 31177 net.cpp:150] Setting up conv1_1/conv
I0502 11:39:01.100392 31177 net.cpp:157] Top shape: 1 16 320 528 (2703360)
I0502 11:39:01.100394 31177 net.cpp:165] Memory required for data: 18923544
I0502 11:39:01.100402 31177 layer_factory.hpp:77] Creating layer conv1_1/conv_conv1_1/conv_0_split
I0502 11:39:01.100406 31177 net.cpp:100] Creating Layer conv1_1/conv_conv1_1/conv_0_split
I0502 11:39:01.100409 31177 net.cpp:434] conv1_1/conv_conv1_1/conv_0_split <- conv1_1/conv
I0502 11:39:01.100411 31177 net.cpp:408] conv1_1/conv_conv1_1/conv_0_split -> conv1_1/conv_conv1_1/conv_0_split_0
I0502 11:39:01.100414 31177 net.cpp:408] conv1_1/conv_conv1_1/conv_0_split -> conv1_1/conv_conv1_1/conv_0_split_1
I0502 11:39:01.100419 31177 net.cpp:150] Setting up conv1_1/conv_conv1_1/conv_0_split
I0502 11:39:01.100420 31177 net.cpp:157] Top shape: 1 16 320 528 (2703360)
I0502 11:39:01.100423 31177 net.cpp:157] Top shape: 1 16 320 528 (2703360)
I0502 11:39:01.100425 31177 net.cpp:165] Memory required for data: 40550424
I0502 11:39:01.100426 31177 layer_factory.hpp:77] Creating layer conv1_1/neg
I0502 11:39:01.100430 31177 net.cpp:100] Creating Layer conv1_1/neg
I0502 11:39:01.100432 31177 net.cpp:434] conv1_1/neg <- conv1_1/conv_conv1_1/conv_0_split_0
I0502 11:39:01.100435 31177 net.cpp:408] conv1_1/neg -> conv1_1/neg
I0502 11:39:01.100438 31177 net.cpp:150] Setting up conv1_1/neg
I0502 11:39:01.100440 31177 net.cpp:157] Top shape: 1 16 320 528 (2703360)
I0502 11:39:01.100442 31177 net.cpp:165] Memory required for data: 51363864
I0502 11:39:01.100445 31177 layer_factory.hpp:77] Creating layer conv1_1/concat
I0502 11:39:01.100448 31177 net.cpp:100] Creating Layer conv1_1/concat
I0502 11:39:01.100450 31177 net.cpp:434] conv1_1/concat <- conv1_1/conv_conv1_1/conv_0_split_1
I0502 11:39:01.100452 31177 net.cpp:434] conv1_1/concat <- conv1_1/neg
I0502 11:39:01.100456 31177 net.cpp:408] conv1_1/concat -> conv1_1
I0502 11:39:01.100459 31177 net.cpp:150] Setting up conv1_1/concat
I0502 11:39:01.100462 31177 net.cpp:157] Top shape: 1 32 320 528 (5406720)
I0502 11:39:01.100464 31177 net.cpp:165] Memory required for data: 72990744
I0502 11:39:01.100466 31177 layer_factory.hpp:77] Creating layer conv1_1/scale
I0502 11:39:01.100468 31177 net.cpp:100] Creating Layer conv1_1/scale
I0502 11:39:01.100471 31177 net.cpp:434] conv1_1/scale <- conv1_1
I0502 11:39:01.100473 31177 net.cpp:395] conv1_1/scale -> conv1_1 (in-place)
I0502 11:39:01.100478 31177 layer_factory.hpp:77] Creating layer conv1_1/scale
I0502 11:39:01.100802 31177 net.cpp:150] Setting up conv1_1/scale
I0502 11:39:01.100806 31177 net.cpp:157] Top shape: 1 32 320 528 (5406720)
I0502 11:39:01.100808 31177 net.cpp:165] Memory required for data: 94617624
I0502 11:39:01.100812 31177 layer_factory.hpp:77] Creating layer conv1_1/relu
I0502 11:39:01.100816 31177 net.cpp:100] Creating Layer conv1_1/relu
I0502 11:39:01.100817 31177 net.cpp:434] conv1_1/relu <- conv1_1
I0502 11:39:01.100821 31177 net.cpp:395] conv1_1/relu -> conv1_1 (in-place)
I0502 11:39:01.100823 31177 net.cpp:150] Setting up conv1_1/relu
I0502 11:39:01.100826 31177 net.cpp:157] Top shape: 1 32 320 528 (5406720)
I0502 11:39:01.100827 31177 net.cpp:165] Memory required for data: 116244504
I0502 11:39:01.100829 31177 layer_factory.hpp:77] Creating layer pool1
I0502 11:39:01.100831 31177 net.cpp:100] Creating Layer pool1
I0502 11:39:01.100833 31177 net.cpp:434] pool1 <- conv1_1
I0502 11:39:01.100836 31177 net.cpp:408] pool1 -> pool1
I0502 11:39:01.100841 31177 net.cpp:150] Setting up pool1
I0502 11:39:01.100844 31177 net.cpp:157] Top shape: 1 32 160 264 (1351680)
I0502 11:39:01.100845 31177 net.cpp:165] Memory required for data: 121651224
I0502 11:39:01.100847 31177 layer_factory.hpp:77] Creating layer pool1_pool1_0_split
I0502 11:39:01.100850 31177 net.cpp:100] Creating Layer pool1_pool1_0_split
I0502 11:39:01.100852 31177 net.cpp:434] pool1_pool1_0_split <- pool1
I0502 11:39:01.100855 31177 net.cpp:408] pool1_pool1_0_split -> pool1_pool1_0_split_0
I0502 11:39:01.100858 31177 net.cpp:408] pool1_pool1_0_split -> pool1_pool1_0_split_1
I0502 11:39:01.100862 31177 net.cpp:150] Setting up pool1_pool1_0_split
I0502 11:39:01.100864 31177 net.cpp:157] Top shape: 1 32 160 264 (1351680)
I0502 11:39:01.100867 31177 net.cpp:157] Top shape: 1 32 160 264 (1351680)
I0502 11:39:01.100868 31177 net.cpp:165] Memory required for data: 132464664
I0502 11:39:01.100869 31177 layer_factory.hpp:77] Creating layer conv2_1/1/conv
I0502 11:39:01.100873 31177 net.cpp:100] Creating Layer conv2_1/1/conv
I0502 11:39:01.100875 31177 net.cpp:434] conv2_1/1/conv <- pool1_pool1_0_split_0
I0502 11:39:01.100878 31177 net.cpp:408] conv2_1/1/conv -> conv2_1/1
I0502 11:39:01.100929 31177 net.cpp:150] Setting up conv2_1/1/conv
I0502 11:39:01.100931 31177 net.cpp:157] Top shape: 1 24 160 264 (1013760)
I0502 11:39:01.100932 31177 net.cpp:165] Memory required for data: 136519704
I0502 11:39:01.100936 31177 layer_factory.hpp:77] Creating layer conv2_1/1/relu
I0502 11:39:01.100940 31177 net.cpp:100] Creating Layer conv2_1/1/relu
I0502 11:39:01.100942 31177 net.cpp:434] conv2_1/1/relu <- conv2_1/1
I0502 11:39:01.100944 31177 net.cpp:395] conv2_1/1/relu -> conv2_1/1 (in-place)
I0502 11:39:01.100947 31177 net.cpp:150] Setting up conv2_1/1/relu
I0502 11:39:01.100950 31177 net.cpp:157] Top shape: 1 24 160 264 (1013760)
I0502 11:39:01.100951 31177 net.cpp:165] Memory required for data: 140574744
I0502 11:39:01.100952 31177 layer_factory.hpp:77] Creating layer conv2_1/2/conv
I0502 11:39:01.100956 31177 net.cpp:100] Creating Layer conv2_1/2/conv
I0502 11:39:01.100957 31177 net.cpp:434] conv2_1/2/conv <- conv2_1/1
I0502 11:39:01.100960 31177 net.cpp:408] conv2_1/2/conv -> conv2_1/2/conv
I0502 11:39:01.101047 31177 net.cpp:150] Setting up conv2_1/2/conv
I0502 11:39:01.101052 31177 net.cpp:157] Top shape: 1 24 160 264 (1013760)
I0502 11:39:01.101054 31177 net.cpp:165] Memory required for data: 144629784
I0502 11:39:01.101058 31177 layer_factory.hpp:77] Creating layer conv2_1/2/conv_conv2_1/2/conv_0_split
I0502 11:39:01.101060 31177 net.cpp:100] Creating Layer conv2_1/2/conv_conv2_1/2/conv_0_split
I0502 11:39:01.101063 31177 net.cpp:434] conv2_1/2/conv_conv2_1/2/conv_0_split <- conv2_1/2/conv
I0502 11:39:01.101064 31177 net.cpp:408] conv2_1/2/conv_conv2_1/2/conv_0_split -> conv2_1/2/conv_conv2_1/2/conv_0_split_0
I0502 11:39:01.101068 31177 net.cpp:408] conv2_1/2/conv_conv2_1/2/conv_0_split -> conv2_1/2/conv_conv2_1/2/conv_0_split_1
I0502 11:39:01.101070 31177 net.cpp:150] Setting up conv2_1/2/conv_conv2_1/2/conv_0_split
I0502 11:39:01.101073 31177 net.cpp:157] Top shape: 1 24 160 264 (1013760)
I0502 11:39:01.101074 31177 net.cpp:157] Top shape: 1 24 160 264 (1013760)
I0502 11:39:01.101076 31177 net.cpp:165] Memory required for data: 152739864
I0502 11:39:01.101078 31177 layer_factory.hpp:77] Creating layer conv2_1/2/neg
I0502 11:39:01.101081 31177 net.cpp:100] Creating Layer conv2_1/2/neg
I0502 11:39:01.101083 31177 net.cpp:434] conv2_1/2/neg <- conv2_1/2/conv_conv2_1/2/conv_0_split_0
I0502 11:39:01.101085 31177 net.cpp:408] conv2_1/2/neg -> conv2_1/2/neg
I0502 11:39:01.101089 31177 net.cpp:150] Setting up conv2_1/2/neg
I0502 11:39:01.101090 31177 net.cpp:157] Top shape: 1 24 160 264 (1013760)
I0502 11:39:01.101092 31177 net.cpp:165] Memory required for data: 156794904
I0502 11:39:01.101094 31177 layer_factory.hpp:77] Creating layer conv2_1/2/concat
I0502 11:39:01.101096 31177 net.cpp:100] Creating Layer conv2_1/2/concat
I0502 11:39:01.101099 31177 net.cpp:434] conv2_1/2/concat <- conv2_1/2/conv_conv2_1/2/conv_0_split_1
I0502 11:39:01.101100 31177 net.cpp:434] conv2_1/2/concat <- conv2_1/2/neg
I0502 11:39:01.101102 31177 net.cpp:408] conv2_1/2/concat -> conv2_1/2
I0502 11:39:01.101105 31177 net.cpp:150] Setting up conv2_1/2/concat
I0502 11:39:01.101107 31177 net.cpp:157] Top shape: 1 48 160 264 (2027520)
I0502 11:39:01.101109 31177 net.cpp:165] Memory required for data: 164904984
I0502 11:39:01.101110 31177 layer_factory.hpp:77] Creating layer conv2_1/2/scale
I0502 11:39:01.101114 31177 net.cpp:100] Creating Layer conv2_1/2/scale
I0502 11:39:01.101115 31177 net.cpp:434] conv2_1/2/scale <- conv2_1/2
I0502 11:39:01.101119 31177 net.cpp:395] conv2_1/2/scale -> conv2_1/2 (in-place)
I0502 11:39:01.101124 31177 layer_factory.hpp:77] Creating layer conv2_1/2/scale
I0502 11:39:01.101209 31177 net.cpp:150] Setting up conv2_1/2/scale
I0502 11:39:01.101213 31177 net.cpp:157] Top shape: 1 48 160 264 (2027520)
I0502 11:39:01.101214 31177 net.cpp:165] Memory required for data: 173015064
I0502 11:39:01.101219 31177 layer_factory.hpp:77] Creating layer conv2_1/2/relu
I0502 11:39:01.101222 31177 net.cpp:100] Creating Layer conv2_1/2/relu
I0502 11:39:01.101224 31177 net.cpp:434] conv2_1/2/relu <- conv2_1/2
I0502 11:39:01.101227 31177 net.cpp:395] conv2_1/2/relu -> conv2_1/2 (in-place)
I0502 11:39:01.101229 31177 net.cpp:150] Setting up conv2_1/2/relu
I0502 11:39:01.101233 31177 net.cpp:157] Top shape: 1 48 160 264 (2027520)
I0502 11:39:01.101233 31177 net.cpp:165] Memory required for data: 181125144
I0502 11:39:01.101235 31177 layer_factory.hpp:77] Creating layer conv2_1/3/conv
I0502 11:39:01.101238 31177 net.cpp:100] Creating Layer conv2_1/3/conv
I0502 11:39:01.101240 31177 net.cpp:434] conv2_1/3/conv <- conv2_1/2
I0502 11:39:01.101243 31177 net.cpp:408] conv2_1/3/conv -> conv2_1/3
I0502 11:39:01.101305 31177 net.cpp:150] Setting up conv2_1/3/conv
I0502 11:39:01.101310 31177 net.cpp:157] Top shape: 1 64 160 264 (2703360)
I0502 11:39:01.101311 31177 net.cpp:165] Memory required for data: 191938584
I0502 11:39:01.101315 31177 layer_factory.hpp:77] Creating layer conv2_1/proj
I0502 11:39:01.101317 31177 net.cpp:100] Creating Layer conv2_1/proj
I0502 11:39:01.101320 31177 net.cpp:434] conv2_1/proj <- pool1_pool1_0_split_1
I0502 11:39:01.101323 31177 net.cpp:408] conv2_1/proj -> conv2_1/proj
I0502 11:39:01.101379 31177 net.cpp:150] Setting up conv2_1/proj
I0502 11:39:01.101382 31177 net.cpp:157] Top shape: 1 64 160 264 (2703360)
I0502 11:39:01.101384 31177 net.cpp:165] Memory required for data: 202752024
I0502 11:39:01.101387 31177 layer_factory.hpp:77] Creating layer conv2_1
I0502 11:39:01.101394 31177 net.cpp:100] Creating Layer conv2_1
I0502 11:39:01.101397 31177 net.cpp:434] conv2_1 <- conv2_1/3
I0502 11:39:01.101398 31177 net.cpp:434] conv2_1 <- conv2_1/proj
I0502 11:39:01.101402 31177 net.cpp:408] conv2_1 -> conv2_1
I0502 11:39:01.101406 31177 net.cpp:150] Setting up conv2_1
I0502 11:39:01.101409 31177 net.cpp:157] Top shape: 1 64 160 264 (2703360)
I0502 11:39:01.101410 31177 net.cpp:165] Memory required for data: 213565464
I0502 11:39:01.101413 31177 layer_factory.hpp:77] Creating layer conv2_1_conv2_1_0_split
I0502 11:39:01.101414 31177 net.cpp:100] Creating Layer conv2_1_conv2_1_0_split
I0502 11:39:01.101416 31177 net.cpp:434] conv2_1_conv2_1_0_split <- conv2_1
I0502 11:39:01.101419 31177 net.cpp:408] conv2_1_conv2_1_0_split -> conv2_1_conv2_1_0_split_0
I0502 11:39:01.101423 31177 net.cpp:408] conv2_1_conv2_1_0_split -> conv2_1_conv2_1_0_split_1
I0502 11:39:01.101425 31177 net.cpp:150] Setting up conv2_1_conv2_1_0_split
I0502 11:39:01.101428 31177 net.cpp:157] Top shape: 1 64 160 264 (2703360)
I0502 11:39:01.101430 31177 net.cpp:157] Top shape: 1 64 160 264 (2703360)
I0502 11:39:01.101431 31177 net.cpp:165] Memory required for data: 235192344
I0502 11:39:01.101433 31177 layer_factory.hpp:77] Creating layer conv2_2/1/conv
I0502 11:39:01.101438 31177 net.cpp:100] Creating Layer conv2_2/1/conv
I0502 11:39:01.101438 31177 net.cpp:434] conv2_2/1/conv <- conv2_1_conv2_1_0_split_0
I0502 11:39:01.101442 31177 net.cpp:408] conv2_2/1/conv -> conv2_2/1
I0502 11:39:01.101495 31177 net.cpp:150] Setting up conv2_2/1/conv
I0502 11:39:01.101498 31177 net.cpp:157] Top shape: 1 24 160 264 (1013760)
I0502 11:39:01.101500 31177 net.cpp:165] Memory required for data: 239247384
I0502 11:39:01.101503 31177 layer_factory.hpp:77] Creating layer conv2_2/1/relu
I0502 11:39:01.101505 31177 net.cpp:100] Creating Layer conv2_2/1/relu
I0502 11:39:01.101507 31177 net.cpp:434] conv2_2/1/relu <- conv2_2/1
I0502 11:39:01.101511 31177 net.cpp:395] conv2_2/1/relu -> conv2_2/1 (in-place)
I0502 11:39:01.101512 31177 net.cpp:150] Setting up conv2_2/1/relu
I0502 11:39:01.101516 31177 net.cpp:157] Top shape: 1 24 160 264 (1013760)
I0502 11:39:01.101516 31177 net.cpp:165] Memory required for data: 243302424
I0502 11:39:01.101518 31177 layer_factory.hpp:77] Creating layer conv2_2/2/conv
I0502 11:39:01.101521 31177 net.cpp:100] Creating Layer conv2_2/2/conv
I0502 11:39:01.101522 31177 net.cpp:434] conv2_2/2/conv <- conv2_2/1
I0502 11:39:01.101526 31177 net.cpp:408] conv2_2/2/conv -> conv2_2/2/conv
I0502 11:39:01.101598 31177 net.cpp:150] Setting up conv2_2/2/conv
I0502 11:39:01.101600 31177 net.cpp:157] Top shape: 1 24 160 264 (1013760)
I0502 11:39:01.101603 31177 net.cpp:165] Memory required for data: 247357464
I0502 11:39:01.101608 31177 layer_factory.hpp:77] Creating layer conv2_2/2/conv_conv2_2/2/conv_0_split
I0502 11:39:01.101609 31177 net.cpp:100] Creating Layer conv2_2/2/conv_conv2_2/2/conv_0_split
I0502 11:39:01.101611 31177 net.cpp:434] conv2_2/2/conv_conv2_2/2/conv_0_split <- conv2_2/2/conv
I0502 11:39:01.101614 31177 net.cpp:408] conv2_2/2/conv_conv2_2/2/conv_0_split -> conv2_2/2/conv_conv2_2/2/conv_0_split_0
I0502 11:39:01.101617 31177 net.cpp:408] conv2_2/2/conv_conv2_2/2/conv_0_split -> conv2_2/2/conv_conv2_2/2/conv_0_split_1
I0502 11:39:01.101620 31177 net.cpp:150] Setting up conv2_2/2/conv_conv2_2/2/conv_0_split
I0502 11:39:01.101624 31177 net.cpp:157] Top shape: 1 24 160 264 (1013760)
I0502 11:39:01.101625 31177 net.cpp:157] Top shape: 1 24 160 264 (1013760)
I0502 11:39:01.101626 31177 net.cpp:165] Memory required for data: 255467544
I0502 11:39:01.101629 31177 layer_factory.hpp:77] Creating layer conv2_2/2/neg
I0502 11:39:01.101630 31177 net.cpp:100] Creating Layer conv2_2/2/neg
I0502 11:39:01.101632 31177 net.cpp:434] conv2_2/2/neg <- conv2_2/2/conv_conv2_2/2/conv_0_split_0
I0502 11:39:01.101634 31177 net.cpp:408] conv2_2/2/neg -> conv2_2/2/neg
I0502 11:39:01.101637 31177 net.cpp:150] Setting up conv2_2/2/neg
I0502 11:39:01.101639 31177 net.cpp:157] Top shape: 1 24 160 264 (1013760)
I0502 11:39:01.101641 31177 net.cpp:165] Memory required for data: 259522584
I0502 11:39:01.101644 31177 layer_factory.hpp:77] Creating layer conv2_2/2/concat
I0502 11:39:01.101645 31177 net.cpp:100] Creating Layer conv2_2/2/concat
I0502 11:39:01.101647 31177 net.cpp:434] conv2_2/2/concat <- conv2_2/2/conv_conv2_2/2/conv_0_split_1
I0502 11:39:01.101649 31177 net.cpp:434] conv2_2/2/concat <- conv2_2/2/neg
I0502 11:39:01.101652 31177 net.cpp:408] conv2_2/2/concat -> conv2_2/2
I0502 11:39:01.101655 31177 net.cpp:150] Setting up conv2_2/2/concat
I0502 11:39:01.101658 31177 net.cpp:157] Top shape: 1 48 160 264 (2027520)
I0502 11:39:01.101660 31177 net.cpp:165] Memory required for data: 267632664
I0502 11:39:01.101661 31177 layer_factory.hpp:77] Creating layer conv2_2/2/scale
I0502 11:39:01.101663 31177 net.cpp:100] Creating Layer conv2_2/2/scale
I0502 11:39:01.101665 31177 net.cpp:434] conv2_2/2/scale <- conv2_2/2
I0502 11:39:01.101668 31177 net.cpp:395] conv2_2/2/scale -> conv2_2/2 (in-place)
I0502 11:39:01.101672 31177 layer_factory.hpp:77] Creating layer conv2_2/2/scale
I0502 11:39:01.101758 31177 net.cpp:150] Setting up conv2_2/2/scale
I0502 11:39:01.101760 31177 net.cpp:157] Top shape: 1 48 160 264 (2027520)
I0502 11:39:01.101763 31177 net.cpp:165] Memory required for data: 275742744
I0502 11:39:01.101765 31177 layer_factory.hpp:77] Creating layer conv2_2/2/relu
I0502 11:39:01.101768 31177 net.cpp:100] Creating Layer conv2_2/2/relu
I0502 11:39:01.101769 31177 net.cpp:434] conv2_2/2/relu <- conv2_2/2
I0502 11:39:01.101771 31177 net.cpp:395] conv2_2/2/relu -> conv2_2/2 (in-place)
I0502 11:39:01.101774 31177 net.cpp:150] Setting up conv2_2/2/relu
I0502 11:39:01.101776 31177 net.cpp:157] Top shape: 1 48 160 264 (2027520)
I0502 11:39:01.101778 31177 net.cpp:165] Memory required for data: 283852824
I0502 11:39:01.101779 31177 layer_factory.hpp:77] Creating layer conv2_2/3/conv
I0502 11:39:01.101783 31177 net.cpp:100] Creating Layer conv2_2/3/conv
I0502 11:39:01.101784 31177 net.cpp:434] conv2_2/3/conv <- conv2_2/2
I0502 11:39:01.101788 31177 net.cpp:408] conv2_2/3/conv -> conv2_2/3
I0502 11:39:01.101850 31177 net.cpp:150] Setting up conv2_2/3/conv
I0502 11:39:01.101853 31177 net.cpp:157] Top shape: 1 64 160 264 (2703360)
I0502 11:39:01.101855 31177 net.cpp:165] Memory required for data: 294666264
I0502 11:39:01.101857 31177 layer_factory.hpp:77] Creating layer conv2_2
I0502 11:39:01.101861 31177 net.cpp:100] Creating Layer conv2_2
I0502 11:39:01.101862 31177 net.cpp:434] conv2_2 <- conv2_2/3
I0502 11:39:01.101864 31177 net.cpp:434] conv2_2 <- conv2_1_conv2_1_0_split_1
I0502 11:39:01.101867 31177 net.cpp:408] conv2_2 -> conv2_2
I0502 11:39:01.101871 31177 net.cpp:150] Setting up conv2_2
I0502 11:39:01.101873 31177 net.cpp:157] Top shape: 1 64 160 264 (2703360)
I0502 11:39:01.101874 31177 net.cpp:165] Memory required for data: 305479704
I0502 11:39:01.101876 31177 layer_factory.hpp:77] Creating layer conv2_2_conv2_2_0_split
I0502 11:39:01.101878 31177 net.cpp:100] Creating Layer conv2_2_conv2_2_0_split
I0502 11:39:01.101881 31177 net.cpp:434] conv2_2_conv2_2_0_split <- conv2_2
I0502 11:39:01.101883 31177 net.cpp:408] conv2_2_conv2_2_0_split -> conv2_2_conv2_2_0_split_0
I0502 11:39:01.101886 31177 net.cpp:408] conv2_2_conv2_2_0_split -> conv2_2_conv2_2_0_split_1
I0502 11:39:01.101889 31177 net.cpp:150] Setting up conv2_2_conv2_2_0_split
I0502 11:39:01.101891 31177 net.cpp:157] Top shape: 1 64 160 264 (2703360)
I0502 11:39:01.101893 31177 net.cpp:157] Top shape: 1 64 160 264 (2703360)
I0502 11:39:01.101896 31177 net.cpp:165] Memory required for data: 327106584
I0502 11:39:01.101897 31177 layer_factory.hpp:77] Creating layer conv2_3/1/conv
I0502 11:39:01.101902 31177 net.cpp:100] Creating Layer conv2_3/1/conv
I0502 11:39:01.101903 31177 net.cpp:434] conv2_3/1/conv <- conv2_2_conv2_2_0_split_0
I0502 11:39:01.101907 31177 net.cpp:408] conv2_3/1/conv -> conv2_3/1
I0502 11:39:01.101959 31177 net.cpp:150] Setting up conv2_3/1/conv
I0502 11:39:01.101963 31177 net.cpp:157] Top shape: 1 24 160 264 (1013760)
I0502 11:39:01.101964 31177 net.cpp:165] Memory required for data: 331161624
I0502 11:39:01.101966 31177 layer_factory.hpp:77] Creating layer conv2_3/1/relu
I0502 11:39:01.101969 31177 net.cpp:100] Creating Layer conv2_3/1/relu
I0502 11:39:01.101970 31177 net.cpp:434] conv2_3/1/relu <- conv2_3/1
I0502 11:39:01.101974 31177 net.cpp:395] conv2_3/1/relu -> conv2_3/1 (in-place)
I0502 11:39:01.101976 31177 net.cpp:150] Setting up conv2_3/1/relu
I0502 11:39:01.101979 31177 net.cpp:157] Top shape: 1 24 160 264 (1013760)
I0502 11:39:01.101980 31177 net.cpp:165] Memory required for data: 335216664
I0502 11:39:01.101981 31177 layer_factory.hpp:77] Creating layer conv2_3/2/conv
I0502 11:39:01.101984 31177 net.cpp:100] Creating Layer conv2_3/2/conv
I0502 11:39:01.101985 31177 net.cpp:434] conv2_3/2/conv <- conv2_3/1
I0502 11:39:01.101989 31177 net.cpp:408] conv2_3/2/conv -> conv2_3/2/conv
I0502 11:39:01.102069 31177 net.cpp:150] Setting up conv2_3/2/conv
I0502 11:39:01.102072 31177 net.cpp:157] Top shape: 1 24 160 264 (1013760)
I0502 11:39:01.102074 31177 net.cpp:165] Memory required for data: 339271704
I0502 11:39:01.102077 31177 layer_factory.hpp:77] Creating layer conv2_3/2/conv_conv2_3/2/conv_0_split
I0502 11:39:01.102079 31177 net.cpp:100] Creating Layer conv2_3/2/conv_conv2_3/2/conv_0_split
I0502 11:39:01.102082 31177 net.cpp:434] conv2_3/2/conv_conv2_3/2/conv_0_split <- conv2_3/2/conv
I0502 11:39:01.102083 31177 net.cpp:408] conv2_3/2/conv_conv2_3/2/conv_0_split -> conv2_3/2/conv_conv2_3/2/conv_0_split_0
I0502 11:39:01.102087 31177 net.cpp:408] conv2_3/2/conv_conv2_3/2/conv_0_split -> conv2_3/2/conv_conv2_3/2/conv_0_split_1
I0502 11:39:01.102090 31177 net.cpp:150] Setting up conv2_3/2/conv_conv2_3/2/conv_0_split
I0502 11:39:01.102092 31177 net.cpp:157] Top shape: 1 24 160 264 (1013760)
I0502 11:39:01.102094 31177 net.cpp:157] Top shape: 1 24 160 264 (1013760)
I0502 11:39:01.102097 31177 net.cpp:165] Memory required for data: 347381784
I0502 11:39:01.102097 31177 layer_factory.hpp:77] Creating layer conv2_3/2/neg
I0502 11:39:01.102100 31177 net.cpp:100] Creating Layer conv2_3/2/neg
I0502 11:39:01.102102 31177 net.cpp:434] conv2_3/2/neg <- conv2_3/2/conv_conv2_3/2/conv_0_split_0
I0502 11:39:01.102104 31177 net.cpp:408] conv2_3/2/neg -> conv2_3/2/neg
I0502 11:39:01.102108 31177 net.cpp:150] Setting up conv2_3/2/neg
I0502 11:39:01.102109 31177 net.cpp:157] Top shape: 1 24 160 264 (1013760)
I0502 11:39:01.102111 31177 net.cpp:165] Memory required for data: 351436824
I0502 11:39:01.102113 31177 layer_factory.hpp:77] Creating layer conv2_3/2/concat
I0502 11:39:01.102115 31177 net.cpp:100] Creating Layer conv2_3/2/concat
I0502 11:39:01.102116 31177 net.cpp:434] conv2_3/2/concat <- conv2_3/2/conv_conv2_3/2/conv_0_split_1
I0502 11:39:01.102118 31177 net.cpp:434] conv2_3/2/concat <- conv2_3/2/neg
I0502 11:39:01.102121 31177 net.cpp:408] conv2_3/2/concat -> conv2_3/2
I0502 11:39:01.102123 31177 net.cpp:150] Setting up conv2_3/2/concat
I0502 11:39:01.102126 31177 net.cpp:157] Top shape: 1 48 160 264 (2027520)
I0502 11:39:01.102128 31177 net.cpp:165] Memory required for data: 359546904
I0502 11:39:01.102129 31177 layer_factory.hpp:77] Creating layer conv2_3/2/scale
I0502 11:39:01.102133 31177 net.cpp:100] Creating Layer conv2_3/2/scale
I0502 11:39:01.102133 31177 net.cpp:434] conv2_3/2/scale <- conv2_3/2
I0502 11:39:01.102136 31177 net.cpp:395] conv2_3/2/scale -> conv2_3/2 (in-place)
I0502 11:39:01.102141 31177 layer_factory.hpp:77] Creating layer conv2_3/2/scale
I0502 11:39:01.102226 31177 net.cpp:150] Setting up conv2_3/2/scale
I0502 11:39:01.102229 31177 net.cpp:157] Top shape: 1 48 160 264 (2027520)
I0502 11:39:01.102231 31177 net.cpp:165] Memory required for data: 367656984
I0502 11:39:01.102233 31177 layer_factory.hpp:77] Creating layer conv2_3/2/relu
I0502 11:39:01.102236 31177 net.cpp:100] Creating Layer conv2_3/2/relu
I0502 11:39:01.102238 31177 net.cpp:434] conv2_3/2/relu <- conv2_3/2
I0502 11:39:01.102241 31177 net.cpp:395] conv2_3/2/relu -> conv2_3/2 (in-place)
I0502 11:39:01.102244 31177 net.cpp:150] Setting up conv2_3/2/relu
I0502 11:39:01.102246 31177 net.cpp:157] Top shape: 1 48 160 264 (2027520)
I0502 11:39:01.102247 31177 net.cpp:165] Memory required for data: 375767064
I0502 11:39:01.102249 31177 layer_factory.hpp:77] Creating layer conv2_3/3/conv
I0502 11:39:01.102252 31177 net.cpp:100] Creating Layer conv2_3/3/conv
I0502 11:39:01.102253 31177 net.cpp:434] conv2_3/3/conv <- conv2_3/2
I0502 11:39:01.102257 31177 net.cpp:408] conv2_3/3/conv -> conv2_3/3
I0502 11:39:01.102318 31177 net.cpp:150] Setting up conv2_3/3/conv
I0502 11:39:01.102320 31177 net.cpp:157] Top shape: 1 64 160 264 (2703360)
I0502 11:39:01.102321 31177 net.cpp:165] Memory required for data: 386580504
I0502 11:39:01.102324 31177 layer_factory.hpp:77] Creating layer conv2_3
I0502 11:39:01.102327 31177 net.cpp:100] Creating Layer conv2_3
I0502 11:39:01.102329 31177 net.cpp:434] conv2_3 <- conv2_3/3
I0502 11:39:01.102331 31177 net.cpp:434] conv2_3 <- conv2_2_conv2_2_0_split_1
I0502 11:39:01.102334 31177 net.cpp:408] conv2_3 -> conv2_3
I0502 11:39:01.102337 31177 net.cpp:150] Setting up conv2_3
I0502 11:39:01.102339 31177 net.cpp:157] Top shape: 1 64 160 264 (2703360)
I0502 11:39:01.102341 31177 net.cpp:165] Memory required for data: 397393944
I0502 11:39:01.102342 31177 layer_factory.hpp:77] Creating layer conv2_3_conv2_3_0_split
I0502 11:39:01.102345 31177 net.cpp:100] Creating Layer conv2_3_conv2_3_0_split
I0502 11:39:01.102346 31177 net.cpp:434] conv2_3_conv2_3_0_split <- conv2_3
I0502 11:39:01.102349 31177 net.cpp:408] conv2_3_conv2_3_0_split -> conv2_3_conv2_3_0_split_0
I0502 11:39:01.102352 31177 net.cpp:408] conv2_3_conv2_3_0_split -> conv2_3_conv2_3_0_split_1
I0502 11:39:01.102355 31177 net.cpp:150] Setting up conv2_3_conv2_3_0_split
I0502 11:39:01.102357 31177 net.cpp:157] Top shape: 1 64 160 264 (2703360)
I0502 11:39:01.102360 31177 net.cpp:157] Top shape: 1 64 160 264 (2703360)
I0502 11:39:01.102361 31177 net.cpp:165] Memory required for data: 419020824
I0502 11:39:01.102362 31177 layer_factory.hpp:77] Creating layer conv3_1/1/conv
I0502 11:39:01.102366 31177 net.cpp:100] Creating Layer conv3_1/1/conv
I0502 11:39:01.102368 31177 net.cpp:434] conv3_1/1/conv <- conv2_3_conv2_3_0_split_0
I0502 11:39:01.102370 31177 net.cpp:408] conv3_1/1/conv -> conv3_1/1
I0502 11:39:01.102403 31177 net.cpp:150] Setting up conv3_1/1/conv
I0502 11:39:01.102406 31177 net.cpp:157] Top shape: 1 48 80 132 (506880)
I0502 11:39:01.102407 31177 net.cpp:165] Memory required for data: 421048344
I0502 11:39:01.102411 31177 layer_factory.hpp:77] Creating layer conv3_1/1/relu
I0502 11:39:01.102412 31177 net.cpp:100] Creating Layer conv3_1/1/relu
I0502 11:39:01.102414 31177 net.cpp:434] conv3_1/1/relu <- conv3_1/1
I0502 11:39:01.102417 31177 net.cpp:395] conv3_1/1/relu -> conv3_1/1 (in-place)
I0502 11:39:01.102419 31177 net.cpp:150] Setting up conv3_1/1/relu
I0502 11:39:01.102421 31177 net.cpp:157] Top shape: 1 48 80 132 (506880)
I0502 11:39:01.102423 31177 net.cpp:165] Memory required for data: 423075864
I0502 11:39:01.102424 31177 layer_factory.hpp:77] Creating layer conv3_1/2/conv
I0502 11:39:01.102427 31177 net.cpp:100] Creating Layer conv3_1/2/conv
I0502 11:39:01.102429 31177 net.cpp:434] conv3_1/2/conv <- conv3_1/1
I0502 11:39:01.102432 31177 net.cpp:408] conv3_1/2/conv -> conv3_1/2/conv
I0502 11:39:01.102545 31177 net.cpp:150] Setting up conv3_1/2/conv
I0502 11:39:01.102547 31177 net.cpp:157] Top shape: 1 48 80 132 (506880)
I0502 11:39:01.102550 31177 net.cpp:165] Memory required for data: 425103384
I0502 11:39:01.102555 31177 layer_factory.hpp:77] Creating layer conv3_1/2/conv_conv3_1/2/conv_0_split
I0502 11:39:01.102557 31177 net.cpp:100] Creating Layer conv3_1/2/conv_conv3_1/2/conv_0_split
I0502 11:39:01.102558 31177 net.cpp:434] conv3_1/2/conv_conv3_1/2/conv_0_split <- conv3_1/2/conv
I0502 11:39:01.102562 31177 net.cpp:408] conv3_1/2/conv_conv3_1/2/conv_0_split -> conv3_1/2/conv_conv3_1/2/conv_0_split_0
I0502 11:39:01.102566 31177 net.cpp:408] conv3_1/2/conv_conv3_1/2/conv_0_split -> conv3_1/2/conv_conv3_1/2/conv_0_split_1
I0502 11:39:01.102568 31177 net.cpp:150] Setting up conv3_1/2/conv_conv3_1/2/conv_0_split
I0502 11:39:01.102571 31177 net.cpp:157] Top shape: 1 48 80 132 (506880)
I0502 11:39:01.102572 31177 net.cpp:157] Top shape: 1 48 80 132 (506880)
I0502 11:39:01.102574 31177 net.cpp:165] Memory required for data: 429158424
I0502 11:39:01.102576 31177 layer_factory.hpp:77] Creating layer conv3_1/2/neg
I0502 11:39:01.102578 31177 net.cpp:100] Creating Layer conv3_1/2/neg
I0502 11:39:01.102579 31177 net.cpp:434] conv3_1/2/neg <- conv3_1/2/conv_conv3_1/2/conv_0_split_0
I0502 11:39:01.102582 31177 net.cpp:408] conv3_1/2/neg -> conv3_1/2/neg
I0502 11:39:01.102586 31177 net.cpp:150] Setting up conv3_1/2/neg
I0502 11:39:01.102587 31177 net.cpp:157] Top shape: 1 48 80 132 (506880)
I0502 11:39:01.102588 31177 net.cpp:165] Memory required for data: 431185944
I0502 11:39:01.102591 31177 layer_factory.hpp:77] Creating layer conv3_1/2/concat
I0502 11:39:01.102593 31177 net.cpp:100] Creating Layer conv3_1/2/concat
I0502 11:39:01.102596 31177 net.cpp:434] conv3_1/2/concat <- conv3_1/2/conv_conv3_1/2/conv_0_split_1
I0502 11:39:01.102597 31177 net.cpp:434] conv3_1/2/concat <- conv3_1/2/neg
I0502 11:39:01.102599 31177 net.cpp:408] conv3_1/2/concat -> conv3_1/2
I0502 11:39:01.102603 31177 net.cpp:150] Setting up conv3_1/2/concat
I0502 11:39:01.102605 31177 net.cpp:157] Top shape: 1 96 80 132 (1013760)
I0502 11:39:01.102607 31177 net.cpp:165] Memory required for data: 435240984
I0502 11:39:01.102608 31177 layer_factory.hpp:77] Creating layer conv3_1/2/scale
I0502 11:39:01.102610 31177 net.cpp:100] Creating Layer conv3_1/2/scale
I0502 11:39:01.102612 31177 net.cpp:434] conv3_1/2/scale <- conv3_1/2
I0502 11:39:01.102615 31177 net.cpp:395] conv3_1/2/scale -> conv3_1/2 (in-place)
I0502 11:39:01.102619 31177 layer_factory.hpp:77] Creating layer conv3_1/2/scale
I0502 11:39:01.102644 31177 net.cpp:150] Setting up conv3_1/2/scale
I0502 11:39:01.102648 31177 net.cpp:157] Top shape: 1 96 80 132 (1013760)
I0502 11:39:01.102648 31177 net.cpp:165] Memory required for data: 439296024
I0502 11:39:01.102651 31177 layer_factory.hpp:77] Creating layer conv3_1/2/relu
I0502 11:39:01.102653 31177 net.cpp:100] Creating Layer conv3_1/2/relu
I0502 11:39:01.102655 31177 net.cpp:434] conv3_1/2/relu <- conv3_1/2
I0502 11:39:01.102658 31177 net.cpp:395] conv3_1/2/relu -> conv3_1/2 (in-place)
I0502 11:39:01.102660 31177 net.cpp:150] Setting up conv3_1/2/relu
I0502 11:39:01.102663 31177 net.cpp:157] Top shape: 1 96 80 132 (1013760)
I0502 11:39:01.102664 31177 net.cpp:165] Memory required for data: 443351064
I0502 11:39:01.102666 31177 layer_factory.hpp:77] Creating layer conv3_1/3/conv
I0502 11:39:01.102669 31177 net.cpp:100] Creating Layer conv3_1/3/conv
I0502 11:39:01.102671 31177 net.cpp:434] conv3_1/3/conv <- conv3_1/2
I0502 11:39:01.102674 31177 net.cpp:408] conv3_1/3/conv -> conv3_1/3
I0502 11:39:01.102747 31177 net.cpp:150] Setting up conv3_1/3/conv
I0502 11:39:01.102749 31177 net.cpp:157] Top shape: 1 128 80 132 (1351680)
I0502 11:39:01.102751 31177 net.cpp:165] Memory required for data: 448757784
I0502 11:39:01.102754 31177 layer_factory.hpp:77] Creating layer conv3_1/proj
I0502 11:39:01.102758 31177 net.cpp:100] Creating Layer conv3_1/proj
I0502 11:39:01.102761 31177 net.cpp:434] conv3_1/proj <- conv2_3_conv2_3_0_split_1
I0502 11:39:01.102763 31177 net.cpp:408] conv3_1/proj -> conv3_1/proj
I0502 11:39:01.102819 31177 net.cpp:150] Setting up conv3_1/proj
I0502 11:39:01.102821 31177 net.cpp:157] Top shape: 1 128 80 132 (1351680)
I0502 11:39:01.102823 31177 net.cpp:165] Memory required for data: 454164504
I0502 11:39:01.102826 31177 layer_factory.hpp:77] Creating layer conv3_1
I0502 11:39:01.102829 31177 net.cpp:100] Creating Layer conv3_1
I0502 11:39:01.102831 31177 net.cpp:434] conv3_1 <- conv3_1/3
I0502 11:39:01.102833 31177 net.cpp:434] conv3_1 <- conv3_1/proj
I0502 11:39:01.102836 31177 net.cpp:408] conv3_1 -> conv3_1
I0502 11:39:01.102839 31177 net.cpp:150] Setting up conv3_1
I0502 11:39:01.102843 31177 net.cpp:157] Top shape: 1 128 80 132 (1351680)
I0502 11:39:01.102843 31177 net.cpp:165] Memory required for data: 459571224
I0502 11:39:01.102845 31177 layer_factory.hpp:77] Creating layer conv3_1_conv3_1_0_split
I0502 11:39:01.102847 31177 net.cpp:100] Creating Layer conv3_1_conv3_1_0_split
I0502 11:39:01.102849 31177 net.cpp:434] conv3_1_conv3_1_0_split <- conv3_1
I0502 11:39:01.102851 31177 net.cpp:408] conv3_1_conv3_1_0_split -> conv3_1_conv3_1_0_split_0
I0502 11:39:01.102854 31177 net.cpp:408] conv3_1_conv3_1_0_split -> conv3_1_conv3_1_0_split_1
I0502 11:39:01.102857 31177 net.cpp:150] Setting up conv3_1_conv3_1_0_split
I0502 11:39:01.102859 31177 net.cpp:157] Top shape: 1 128 80 132 (1351680)
I0502 11:39:01.102862 31177 net.cpp:157] Top shape: 1 128 80 132 (1351680)
I0502 11:39:01.102864 31177 net.cpp:165] Memory required for data: 470384664
I0502 11:39:01.102865 31177 layer_factory.hpp:77] Creating layer conv3_2/1/conv
I0502 11:39:01.102869 31177 net.cpp:100] Creating Layer conv3_2/1/conv
I0502 11:39:01.102870 31177 net.cpp:434] conv3_2/1/conv <- conv3_1_conv3_1_0_split_0
I0502 11:39:01.102874 31177 net.cpp:408] conv3_2/1/conv -> conv3_2/1
I0502 11:39:01.102918 31177 net.cpp:150] Setting up conv3_2/1/conv
I0502 11:39:01.102921 31177 net.cpp:157] Top shape: 1 48 80 132 (506880)
I0502 11:39:01.102922 31177 net.cpp:165] Memory required for data: 472412184
I0502 11:39:01.102926 31177 layer_factory.hpp:77] Creating layer conv3_2/1/relu
I0502 11:39:01.102927 31177 net.cpp:100] Creating Layer conv3_2/1/relu
I0502 11:39:01.102929 31177 net.cpp:434] conv3_2/1/relu <- conv3_2/1
I0502 11:39:01.102931 31177 net.cpp:395] conv3_2/1/relu -> conv3_2/1 (in-place)
I0502 11:39:01.102934 31177 net.cpp:150] Setting up conv3_2/1/relu
I0502 11:39:01.102936 31177 net.cpp:157] Top shape: 1 48 80 132 (506880)
I0502 11:39:01.102938 31177 net.cpp:165] Memory required for data: 474439704
I0502 11:39:01.102939 31177 layer_factory.hpp:77] Creating layer conv3_2/2/conv
I0502 11:39:01.102942 31177 net.cpp:100] Creating Layer conv3_2/2/conv
I0502 11:39:01.102944 31177 net.cpp:434] conv3_2/2/conv <- conv3_2/1
I0502 11:39:01.102947 31177 net.cpp:408] conv3_2/2/conv -> conv3_2/2/conv
I0502 11:39:01.103060 31177 net.cpp:150] Setting up conv3_2/2/conv
I0502 11:39:01.103062 31177 net.cpp:157] Top shape: 1 48 80 132 (506880)
I0502 11:39:01.103063 31177 net.cpp:165] Memory required for data: 476467224
I0502 11:39:01.103066 31177 layer_factory.hpp:77] Creating layer conv3_2/2/conv_conv3_2/2/conv_0_split
I0502 11:39:01.103070 31177 net.cpp:100] Creating Layer conv3_2/2/conv_conv3_2/2/conv_0_split
I0502 11:39:01.103071 31177 net.cpp:434] conv3_2/2/conv_conv3_2/2/conv_0_split <- conv3_2/2/conv
I0502 11:39:01.103073 31177 net.cpp:408] conv3_2/2/conv_conv3_2/2/conv_0_split -> conv3_2/2/conv_conv3_2/2/conv_0_split_0
I0502 11:39:01.103076 31177 net.cpp:408] conv3_2/2/conv_conv3_2/2/conv_0_split -> conv3_2/2/conv_conv3_2/2/conv_0_split_1
I0502 11:39:01.103080 31177 net.cpp:150] Setting up conv3_2/2/conv_conv3_2/2/conv_0_split
I0502 11:39:01.103081 31177 net.cpp:157] Top shape: 1 48 80 132 (506880)
I0502 11:39:01.103083 31177 net.cpp:157] Top shape: 1 48 80 132 (506880)
I0502 11:39:01.103085 31177 net.cpp:165] Memory required for data: 480522264
I0502 11:39:01.103086 31177 layer_factory.hpp:77] Creating layer conv3_2/2/neg
I0502 11:39:01.103091 31177 net.cpp:100] Creating Layer conv3_2/2/neg
I0502 11:39:01.103092 31177 net.cpp:434] conv3_2/2/neg <- conv3_2/2/conv_conv3_2/2/conv_0_split_0
I0502 11:39:01.103094 31177 net.cpp:408] conv3_2/2/neg -> conv3_2/2/neg
I0502 11:39:01.103097 31177 net.cpp:150] Setting up conv3_2/2/neg
I0502 11:39:01.103099 31177 net.cpp:157] Top shape: 1 48 80 132 (506880)
I0502 11:39:01.103101 31177 net.cpp:165] Memory required for data: 482549784
I0502 11:39:01.103102 31177 layer_factory.hpp:77] Creating layer conv3_2/2/concat
I0502 11:39:01.103106 31177 net.cpp:100] Creating Layer conv3_2/2/concat
I0502 11:39:01.103107 31177 net.cpp:434] conv3_2/2/concat <- conv3_2/2/conv_conv3_2/2/conv_0_split_1
I0502 11:39:01.103111 31177 net.cpp:434] conv3_2/2/concat <- conv3_2/2/neg
I0502 11:39:01.103112 31177 net.cpp:408] conv3_2/2/concat -> conv3_2/2
I0502 11:39:01.103116 31177 net.cpp:150] Setting up conv3_2/2/concat
I0502 11:39:01.103117 31177 net.cpp:157] Top shape: 1 96 80 132 (1013760)
I0502 11:39:01.103118 31177 net.cpp:165] Memory required for data: 486604824
I0502 11:39:01.103121 31177 layer_factory.hpp:77] Creating layer conv3_2/2/scale
I0502 11:39:01.103123 31177 net.cpp:100] Creating Layer conv3_2/2/scale
I0502 11:39:01.103126 31177 net.cpp:434] conv3_2/2/scale <- conv3_2/2
I0502 11:39:01.103127 31177 net.cpp:395] conv3_2/2/scale -> conv3_2/2 (in-place)
I0502 11:39:01.103132 31177 layer_factory.hpp:77] Creating layer conv3_2/2/scale
I0502 11:39:01.103155 31177 net.cpp:150] Setting up conv3_2/2/scale
I0502 11:39:01.103158 31177 net.cpp:157] Top shape: 1 96 80 132 (1013760)
I0502 11:39:01.103160 31177 net.cpp:165] Memory required for data: 490659864
I0502 11:39:01.103163 31177 layer_factory.hpp:77] Creating layer conv3_2/2/relu
I0502 11:39:01.103165 31177 net.cpp:100] Creating Layer conv3_2/2/relu
I0502 11:39:01.103168 31177 net.cpp:434] conv3_2/2/relu <- conv3_2/2
I0502 11:39:01.103170 31177 net.cpp:395] conv3_2/2/relu -> conv3_2/2 (in-place)
I0502 11:39:01.103173 31177 net.cpp:150] Setting up conv3_2/2/relu
I0502 11:39:01.103175 31177 net.cpp:157] Top shape: 1 96 80 132 (1013760)
I0502 11:39:01.103176 31177 net.cpp:165] Memory required for data: 494714904
I0502 11:39:01.103178 31177 layer_factory.hpp:77] Creating layer conv3_2/3/conv
I0502 11:39:01.103181 31177 net.cpp:100] Creating Layer conv3_2/3/conv
I0502 11:39:01.103183 31177 net.cpp:434] conv3_2/3/conv <- conv3_2/2
I0502 11:39:01.103185 31177 net.cpp:408] conv3_2/3/conv -> conv3_2/3
I0502 11:39:01.103260 31177 net.cpp:150] Setting up conv3_2/3/conv
I0502 11:39:01.103263 31177 net.cpp:157] Top shape: 1 128 80 132 (1351680)
I0502 11:39:01.103265 31177 net.cpp:165] Memory required for data: 500121624
I0502 11:39:01.103267 31177 layer_factory.hpp:77] Creating layer conv3_2
I0502 11:39:01.103272 31177 net.cpp:100] Creating Layer conv3_2
I0502 11:39:01.103274 31177 net.cpp:434] conv3_2 <- conv3_2/3
I0502 11:39:01.103276 31177 net.cpp:434] conv3_2 <- conv3_1_conv3_1_0_split_1
I0502 11:39:01.103279 31177 net.cpp:408] conv3_2 -> conv3_2
I0502 11:39:01.103283 31177 net.cpp:150] Setting up conv3_2
I0502 11:39:01.103286 31177 net.cpp:157] Top shape: 1 128 80 132 (1351680)
I0502 11:39:01.103287 31177 net.cpp:165] Memory required for data: 505528344
I0502 11:39:01.103288 31177 layer_factory.hpp:77] Creating layer conv3_2_conv3_2_0_split
I0502 11:39:01.103291 31177 net.cpp:100] Creating Layer conv3_2_conv3_2_0_split
I0502 11:39:01.103292 31177 net.cpp:434] conv3_2_conv3_2_0_split <- conv3_2
I0502 11:39:01.103296 31177 net.cpp:408] conv3_2_conv3_2_0_split -> conv3_2_conv3_2_0_split_0
I0502 11:39:01.103298 31177 net.cpp:408] conv3_2_conv3_2_0_split -> conv3_2_conv3_2_0_split_1
I0502 11:39:01.103302 31177 net.cpp:150] Setting up conv3_2_conv3_2_0_split
I0502 11:39:01.103303 31177 net.cpp:157] Top shape: 1 128 80 132 (1351680)
I0502 11:39:01.103307 31177 net.cpp:157] Top shape: 1 128 80 132 (1351680)
I0502 11:39:01.103307 31177 net.cpp:165] Memory required for data: 516341784
I0502 11:39:01.103309 31177 layer_factory.hpp:77] Creating layer conv3_3/1/conv
I0502 11:39:01.103312 31177 net.cpp:100] Creating Layer conv3_3/1/conv
I0502 11:39:01.103314 31177 net.cpp:434] conv3_3/1/conv <- conv3_2_conv3_2_0_split_0
I0502 11:39:01.103317 31177 net.cpp:408] conv3_3/1/conv -> conv3_3/1
I0502 11:39:01.103363 31177 net.cpp:150] Setting up conv3_3/1/conv
I0502 11:39:01.103365 31177 net.cpp:157] Top shape: 1 48 80 132 (506880)
I0502 11:39:01.103366 31177 net.cpp:165] Memory required for data: 518369304
I0502 11:39:01.103369 31177 layer_factory.hpp:77] Creating layer conv3_3/1/relu
I0502 11:39:01.103371 31177 net.cpp:100] Creating Layer conv3_3/1/relu
I0502 11:39:01.103374 31177 net.cpp:434] conv3_3/1/relu <- conv3_3/1
I0502 11:39:01.103376 31177 net.cpp:395] conv3_3/1/relu -> conv3_3/1 (in-place)
I0502 11:39:01.103379 31177 net.cpp:150] Setting up conv3_3/1/relu
I0502 11:39:01.103381 31177 net.cpp:157] Top shape: 1 48 80 132 (506880)
I0502 11:39:01.103384 31177 net.cpp:165] Memory required for data: 520396824
I0502 11:39:01.103384 31177 layer_factory.hpp:77] Creating layer conv3_3/2/conv
I0502 11:39:01.103387 31177 net.cpp:100] Creating Layer conv3_3/2/conv
I0502 11:39:01.103389 31177 net.cpp:434] conv3_3/2/conv <- conv3_3/1
I0502 11:39:01.103392 31177 net.cpp:408] conv3_3/2/conv -> conv3_3/2/conv
I0502 11:39:01.103505 31177 net.cpp:150] Setting up conv3_3/2/conv
I0502 11:39:01.103508 31177 net.cpp:157] Top shape: 1 48 80 132 (506880)
I0502 11:39:01.103510 31177 net.cpp:165] Memory required for data: 522424344
I0502 11:39:01.103513 31177 layer_factory.hpp:77] Creating layer conv3_3/2/conv_conv3_3/2/conv_0_split
I0502 11:39:01.103515 31177 net.cpp:100] Creating Layer conv3_3/2/conv_conv3_3/2/conv_0_split
I0502 11:39:01.103518 31177 net.cpp:434] conv3_3/2/conv_conv3_3/2/conv_0_split <- conv3_3/2/conv
I0502 11:39:01.103520 31177 net.cpp:408] conv3_3/2/conv_conv3_3/2/conv_0_split -> conv3_3/2/conv_conv3_3/2/conv_0_split_0
I0502 11:39:01.103525 31177 net.cpp:408] conv3_3/2/conv_conv3_3/2/conv_0_split -> conv3_3/2/conv_conv3_3/2/conv_0_split_1
I0502 11:39:01.103528 31177 net.cpp:150] Setting up conv3_3/2/conv_conv3_3/2/conv_0_split
I0502 11:39:01.103531 31177 net.cpp:157] Top shape: 1 48 80 132 (506880)
I0502 11:39:01.103534 31177 net.cpp:157] Top shape: 1 48 80 132 (506880)
I0502 11:39:01.103535 31177 net.cpp:165] Memory required for data: 526479384
I0502 11:39:01.103538 31177 layer_factory.hpp:77] Creating layer conv3_3/2/neg
I0502 11:39:01.103539 31177 net.cpp:100] Creating Layer conv3_3/2/neg
I0502 11:39:01.103541 31177 net.cpp:434] conv3_3/2/neg <- conv3_3/2/conv_conv3_3/2/conv_0_split_0
I0502 11:39:01.103544 31177 net.cpp:408] conv3_3/2/neg -> conv3_3/2/neg
I0502 11:39:01.103548 31177 net.cpp:150] Setting up conv3_3/2/neg
I0502 11:39:01.103549 31177 net.cpp:157] Top shape: 1 48 80 132 (506880)
I0502 11:39:01.103550 31177 net.cpp:165] Memory required for data: 528506904
I0502 11:39:01.103552 31177 layer_factory.hpp:77] Creating layer conv3_3/2/concat
I0502 11:39:01.103554 31177 net.cpp:100] Creating Layer conv3_3/2/concat
I0502 11:39:01.103556 31177 net.cpp:434] conv3_3/2/concat <- conv3_3/2/conv_conv3_3/2/conv_0_split_1
I0502 11:39:01.103559 31177 net.cpp:434] conv3_3/2/concat <- conv3_3/2/neg
I0502 11:39:01.103560 31177 net.cpp:408] conv3_3/2/concat -> conv3_3/2
I0502 11:39:01.103564 31177 net.cpp:150] Setting up conv3_3/2/concat
I0502 11:39:01.103565 31177 net.cpp:157] Top shape: 1 96 80 132 (1013760)
I0502 11:39:01.103567 31177 net.cpp:165] Memory required for data: 532561944
I0502 11:39:01.103569 31177 layer_factory.hpp:77] Creating layer conv3_3/2/scale
I0502 11:39:01.103572 31177 net.cpp:100] Creating Layer conv3_3/2/scale
I0502 11:39:01.103574 31177 net.cpp:434] conv3_3/2/scale <- conv3_3/2
I0502 11:39:01.103576 31177 net.cpp:395] conv3_3/2/scale -> conv3_3/2 (in-place)
I0502 11:39:01.103581 31177 layer_factory.hpp:77] Creating layer conv3_3/2/scale
I0502 11:39:01.103605 31177 net.cpp:150] Setting up conv3_3/2/scale
I0502 11:39:01.103608 31177 net.cpp:157] Top shape: 1 96 80 132 (1013760)
I0502 11:39:01.103610 31177 net.cpp:165] Memory required for data: 536616984
I0502 11:39:01.103612 31177 layer_factory.hpp:77] Creating layer conv3_3/2/relu
I0502 11:39:01.103615 31177 net.cpp:100] Creating Layer conv3_3/2/relu
I0502 11:39:01.103616 31177 net.cpp:434] conv3_3/2/relu <- conv3_3/2
I0502 11:39:01.103619 31177 net.cpp:395] conv3_3/2/relu -> conv3_3/2 (in-place)
I0502 11:39:01.103621 31177 net.cpp:150] Setting up conv3_3/2/relu
I0502 11:39:01.103624 31177 net.cpp:157] Top shape: 1 96 80 132 (1013760)
I0502 11:39:01.103626 31177 net.cpp:165] Memory required for data: 540672024
I0502 11:39:01.103627 31177 layer_factory.hpp:77] Creating layer conv3_3/3/conv
I0502 11:39:01.103631 31177 net.cpp:100] Creating Layer conv3_3/3/conv
I0502 11:39:01.103631 31177 net.cpp:434] conv3_3/3/conv <- conv3_3/2
I0502 11:39:01.103636 31177 net.cpp:408] conv3_3/3/conv -> conv3_3/3
I0502 11:39:01.103709 31177 net.cpp:150] Setting up conv3_3/3/conv
I0502 11:39:01.103713 31177 net.cpp:157] Top shape: 1 128 80 132 (1351680)
I0502 11:39:01.103713 31177 net.cpp:165] Memory required for data: 546078744
I0502 11:39:01.103716 31177 layer_factory.hpp:77] Creating layer conv3_3
I0502 11:39:01.103719 31177 net.cpp:100] Creating Layer conv3_3
I0502 11:39:01.103720 31177 net.cpp:434] conv3_3 <- conv3_3/3
I0502 11:39:01.103723 31177 net.cpp:434] conv3_3 <- conv3_2_conv3_2_0_split_1
I0502 11:39:01.103725 31177 net.cpp:408] conv3_3 -> conv3_3
I0502 11:39:01.103729 31177 net.cpp:150] Setting up conv3_3
I0502 11:39:01.103730 31177 net.cpp:157] Top shape: 1 128 80 132 (1351680)
I0502 11:39:01.103732 31177 net.cpp:165] Memory required for data: 551485464
I0502 11:39:01.103734 31177 layer_factory.hpp:77] Creating layer conv3_3_conv3_3_0_split
I0502 11:39:01.103737 31177 net.cpp:100] Creating Layer conv3_3_conv3_3_0_split
I0502 11:39:01.103739 31177 net.cpp:434] conv3_3_conv3_3_0_split <- conv3_3
I0502 11:39:01.103741 31177 net.cpp:408] conv3_3_conv3_3_0_split -> conv3_3_conv3_3_0_split_0
I0502 11:39:01.103745 31177 net.cpp:408] conv3_3_conv3_3_0_split -> conv3_3_conv3_3_0_split_1
I0502 11:39:01.103749 31177 net.cpp:150] Setting up conv3_3_conv3_3_0_split
I0502 11:39:01.103750 31177 net.cpp:157] Top shape: 1 128 80 132 (1351680)
I0502 11:39:01.103752 31177 net.cpp:157] Top shape: 1 128 80 132 (1351680)
I0502 11:39:01.103754 31177 net.cpp:165] Memory required for data: 562298904
I0502 11:39:01.103755 31177 layer_factory.hpp:77] Creating layer conv3_4/1/conv
I0502 11:39:01.103758 31177 net.cpp:100] Creating Layer conv3_4/1/conv
I0502 11:39:01.103760 31177 net.cpp:434] conv3_4/1/conv <- conv3_3_conv3_3_0_split_0
I0502 11:39:01.103763 31177 net.cpp:408] conv3_4/1/conv -> conv3_4/1
I0502 11:39:01.103808 31177 net.cpp:150] Setting up conv3_4/1/conv
I0502 11:39:01.103812 31177 net.cpp:157] Top shape: 1 48 80 132 (506880)
I0502 11:39:01.103814 31177 net.cpp:165] Memory required for data: 564326424
I0502 11:39:01.103816 31177 layer_factory.hpp:77] Creating layer conv3_4/1/relu
I0502 11:39:01.103819 31177 net.cpp:100] Creating Layer conv3_4/1/relu
I0502 11:39:01.103821 31177 net.cpp:434] conv3_4/1/relu <- conv3_4/1
I0502 11:39:01.103823 31177 net.cpp:395] conv3_4/1/relu -> conv3_4/1 (in-place)
I0502 11:39:01.103826 31177 net.cpp:150] Setting up conv3_4/1/relu
I0502 11:39:01.103828 31177 net.cpp:157] Top shape: 1 48 80 132 (506880)
I0502 11:39:01.103829 31177 net.cpp:165] Memory required for data: 566353944
I0502 11:39:01.103832 31177 layer_factory.hpp:77] Creating layer conv3_4/2/conv
I0502 11:39:01.103834 31177 net.cpp:100] Creating Layer conv3_4/2/conv
I0502 11:39:01.103837 31177 net.cpp:434] conv3_4/2/conv <- conv3_4/1
I0502 11:39:01.103839 31177 net.cpp:408] conv3_4/2/conv -> conv3_4/2/conv
I0502 11:39:01.103950 31177 net.cpp:150] Setting up conv3_4/2/conv
I0502 11:39:01.103953 31177 net.cpp:157] Top shape: 1 48 80 132 (506880)
I0502 11:39:01.103955 31177 net.cpp:165] Memory required for data: 568381464
I0502 11:39:01.103957 31177 layer_factory.hpp:77] Creating layer conv3_4/2/conv_conv3_4/2/conv_0_split
I0502 11:39:01.103960 31177 net.cpp:100] Creating Layer conv3_4/2/conv_conv3_4/2/conv_0_split
I0502 11:39:01.103962 31177 net.cpp:434] conv3_4/2/conv_conv3_4/2/conv_0_split <- conv3_4/2/conv
I0502 11:39:01.103965 31177 net.cpp:408] conv3_4/2/conv_conv3_4/2/conv_0_split -> conv3_4/2/conv_conv3_4/2/conv_0_split_0
I0502 11:39:01.103967 31177 net.cpp:408] conv3_4/2/conv_conv3_4/2/conv_0_split -> conv3_4/2/conv_conv3_4/2/conv_0_split_1
I0502 11:39:01.103971 31177 net.cpp:150] Setting up conv3_4/2/conv_conv3_4/2/conv_0_split
I0502 11:39:01.103973 31177 net.cpp:157] Top shape: 1 48 80 132 (506880)
I0502 11:39:01.103976 31177 net.cpp:157] Top shape: 1 48 80 132 (506880)
I0502 11:39:01.103977 31177 net.cpp:165] Memory required for data: 572436504
I0502 11:39:01.103979 31177 layer_factory.hpp:77] Creating layer conv3_4/2/neg
I0502 11:39:01.103981 31177 net.cpp:100] Creating Layer conv3_4/2/neg
I0502 11:39:01.103983 31177 net.cpp:434] conv3_4/2/neg <- conv3_4/2/conv_conv3_4/2/conv_0_split_0
I0502 11:39:01.103986 31177 net.cpp:408] conv3_4/2/neg -> conv3_4/2/neg
I0502 11:39:01.103988 31177 net.cpp:150] Setting up conv3_4/2/neg
I0502 11:39:01.103991 31177 net.cpp:157] Top shape: 1 48 80 132 (506880)
I0502 11:39:01.103991 31177 net.cpp:165] Memory required for data: 574464024
I0502 11:39:01.103993 31177 layer_factory.hpp:77] Creating layer conv3_4/2/concat
I0502 11:39:01.103996 31177 net.cpp:100] Creating Layer conv3_4/2/concat
I0502 11:39:01.103998 31177 net.cpp:434] conv3_4/2/concat <- conv3_4/2/conv_conv3_4/2/conv_0_split_1
I0502 11:39:01.104001 31177 net.cpp:434] conv3_4/2/concat <- conv3_4/2/neg
I0502 11:39:01.104002 31177 net.cpp:408] conv3_4/2/concat -> conv3_4/2
I0502 11:39:01.104005 31177 net.cpp:150] Setting up conv3_4/2/concat
I0502 11:39:01.104007 31177 net.cpp:157] Top shape: 1 96 80 132 (1013760)
I0502 11:39:01.104008 31177 net.cpp:165] Memory required for data: 578519064
I0502 11:39:01.104010 31177 layer_factory.hpp:77] Creating layer conv3_4/2/scale
I0502 11:39:01.104013 31177 net.cpp:100] Creating Layer conv3_4/2/scale
I0502 11:39:01.104015 31177 net.cpp:434] conv3_4/2/scale <- conv3_4/2
I0502 11:39:01.104017 31177 net.cpp:395] conv3_4/2/scale -> conv3_4/2 (in-place)
I0502 11:39:01.104022 31177 layer_factory.hpp:77] Creating layer conv3_4/2/scale
I0502 11:39:01.104048 31177 net.cpp:150] Setting up conv3_4/2/scale
I0502 11:39:01.104050 31177 net.cpp:157] Top shape: 1 96 80 132 (1013760)
I0502 11:39:01.104051 31177 net.cpp:165] Memory required for data: 582574104
I0502 11:39:01.104054 31177 layer_factory.hpp:77] Creating layer conv3_4/2/relu
I0502 11:39:01.104056 31177 net.cpp:100] Creating Layer conv3_4/2/relu
I0502 11:39:01.104058 31177 net.cpp:434] conv3_4/2/relu <- conv3_4/2
I0502 11:39:01.104060 31177 net.cpp:395] conv3_4/2/relu -> conv3_4/2 (in-place)
I0502 11:39:01.104063 31177 net.cpp:150] Setting up conv3_4/2/relu
I0502 11:39:01.104065 31177 net.cpp:157] Top shape: 1 96 80 132 (1013760)
I0502 11:39:01.104066 31177 net.cpp:165] Memory required for data: 586629144
I0502 11:39:01.104068 31177 layer_factory.hpp:77] Creating layer conv3_4/3/conv
I0502 11:39:01.104071 31177 net.cpp:100] Creating Layer conv3_4/3/conv
I0502 11:39:01.104074 31177 net.cpp:434] conv3_4/3/conv <- conv3_4/2
I0502 11:39:01.104076 31177 net.cpp:408] conv3_4/3/conv -> conv3_4/3
I0502 11:39:01.104149 31177 net.cpp:150] Setting up conv3_4/3/conv
I0502 11:39:01.104152 31177 net.cpp:157] Top shape: 1 128 80 132 (1351680)
I0502 11:39:01.104153 31177 net.cpp:165] Memory required for data: 592035864
I0502 11:39:01.104156 31177 layer_factory.hpp:77] Creating layer conv3_4
I0502 11:39:01.104159 31177 net.cpp:100] Creating Layer conv3_4
I0502 11:39:01.104161 31177 net.cpp:434] conv3_4 <- conv3_4/3
I0502 11:39:01.104163 31177 net.cpp:434] conv3_4 <- conv3_3_conv3_3_0_split_1
I0502 11:39:01.104166 31177 net.cpp:408] conv3_4 -> conv3_4
I0502 11:39:01.104168 31177 net.cpp:150] Setting up conv3_4
I0502 11:39:01.104171 31177 net.cpp:157] Top shape: 1 128 80 132 (1351680)
I0502 11:39:01.104172 31177 net.cpp:165] Memory required for data: 597442584
I0502 11:39:01.104174 31177 layer_factory.hpp:77] Creating layer conv3_4_conv3_4_0_split
I0502 11:39:01.104178 31177 net.cpp:100] Creating Layer conv3_4_conv3_4_0_split
I0502 11:39:01.104180 31177 net.cpp:434] conv3_4_conv3_4_0_split <- conv3_4
I0502 11:39:01.104183 31177 net.cpp:408] conv3_4_conv3_4_0_split -> conv3_4_conv3_4_0_split_0
I0502 11:39:01.104187 31177 net.cpp:408] conv3_4_conv3_4_0_split -> conv3_4_conv3_4_0_split_1
I0502 11:39:01.104189 31177 net.cpp:408] conv3_4_conv3_4_0_split -> conv3_4_conv3_4_0_split_2
I0502 11:39:01.104192 31177 net.cpp:408] conv3_4_conv3_4_0_split -> conv3_4_conv3_4_0_split_3
I0502 11:39:01.104195 31177 net.cpp:408] conv3_4_conv3_4_0_split -> conv3_4_conv3_4_0_split_4
I0502 11:39:01.104198 31177 net.cpp:408] conv3_4_conv3_4_0_split -> conv3_4_conv3_4_0_split_5
I0502 11:39:01.104202 31177 net.cpp:150] Setting up conv3_4_conv3_4_0_split
I0502 11:39:01.104205 31177 net.cpp:157] Top shape: 1 128 80 132 (1351680)
I0502 11:39:01.104207 31177 net.cpp:157] Top shape: 1 128 80 132 (1351680)
I0502 11:39:01.104209 31177 net.cpp:157] Top shape: 1 128 80 132 (1351680)
I0502 11:39:01.104212 31177 net.cpp:157] Top shape: 1 128 80 132 (1351680)
I0502 11:39:01.104213 31177 net.cpp:157] Top shape: 1 128 80 132 (1351680)
I0502 11:39:01.104215 31177 net.cpp:157] Top shape: 1 128 80 132 (1351680)
I0502 11:39:01.104218 31177 net.cpp:165] Memory required for data: 629882904
I0502 11:39:01.104219 31177 layer_factory.hpp:77] Creating layer conv4_1/incep/0/conv
I0502 11:39:01.104221 31177 net.cpp:100] Creating Layer conv4_1/incep/0/conv
I0502 11:39:01.104223 31177 net.cpp:434] conv4_1/incep/0/conv <- conv3_4_conv3_4_0_split_0
I0502 11:39:01.104226 31177 net.cpp:408] conv4_1/incep/0/conv -> conv4_1/incep/0
I0502 11:39:01.104272 31177 net.cpp:150] Setting up conv4_1/incep/0/conv
I0502 11:39:01.104275 31177 net.cpp:157] Top shape: 1 64 40 66 (168960)
I0502 11:39:01.104276 31177 net.cpp:165] Memory required for data: 630558744
I0502 11:39:01.104285 31177 layer_factory.hpp:77] Creating layer conv4_1/incep/0/relu
I0502 11:39:01.104287 31177 net.cpp:100] Creating Layer conv4_1/incep/0/relu
I0502 11:39:01.104290 31177 net.cpp:434] conv4_1/incep/0/relu <- conv4_1/incep/0
I0502 11:39:01.104292 31177 net.cpp:395] conv4_1/incep/0/relu -> conv4_1/incep/0 (in-place)
I0502 11:39:01.104295 31177 net.cpp:150] Setting up conv4_1/incep/0/relu
I0502 11:39:01.104297 31177 net.cpp:157] Top shape: 1 64 40 66 (168960)
I0502 11:39:01.104298 31177 net.cpp:165] Memory required for data: 631234584
I0502 11:39:01.104300 31177 layer_factory.hpp:77] Creating layer conv4_1/incep/1_reduce/conv
I0502 11:39:01.104303 31177 net.cpp:100] Creating Layer conv4_1/incep/1_reduce/conv
I0502 11:39:01.104305 31177 net.cpp:434] conv4_1/incep/1_reduce/conv <- conv3_4_conv3_4_0_split_1
I0502 11:39:01.104310 31177 net.cpp:408] conv4_1/incep/1_reduce/conv -> conv4_1/incep/1_reduce
I0502 11:39:01.104346 31177 net.cpp:150] Setting up conv4_1/incep/1_reduce/conv
I0502 11:39:01.104348 31177 net.cpp:157] Top shape: 1 48 40 66 (126720)
I0502 11:39:01.104351 31177 net.cpp:165] Memory required for data: 631741464
I0502 11:39:01.104353 31177 layer_factory.hpp:77] Creating layer conv4_1/incep/1_reduce/relu
I0502 11:39:01.104357 31177 net.cpp:100] Creating Layer conv4_1/incep/1_reduce/relu
I0502 11:39:01.104357 31177 net.cpp:434] conv4_1/incep/1_reduce/relu <- conv4_1/incep/1_reduce
I0502 11:39:01.104360 31177 net.cpp:395] conv4_1/incep/1_reduce/relu -> conv4_1/incep/1_reduce (in-place)
I0502 11:39:01.104362 31177 net.cpp:150] Setting up conv4_1/incep/1_reduce/relu
I0502 11:39:01.104364 31177 net.cpp:157] Top shape: 1 48 40 66 (126720)
I0502 11:39:01.104367 31177 net.cpp:165] Memory required for data: 632248344
I0502 11:39:01.104368 31177 layer_factory.hpp:77] Creating layer conv4_1/incep/1_0/conv
I0502 11:39:01.104372 31177 net.cpp:100] Creating Layer conv4_1/incep/1_0/conv
I0502 11:39:01.104373 31177 net.cpp:434] conv4_1/incep/1_0/conv <- conv4_1/incep/1_reduce
I0502 11:39:01.104375 31177 net.cpp:408] conv4_1/incep/1_0/conv -> conv4_1/incep/1_0
I0502 11:39:01.104636 31177 net.cpp:150] Setting up conv4_1/incep/1_0/conv
I0502 11:39:01.104640 31177 net.cpp:157] Top shape: 1 128 40 66 (337920)
I0502 11:39:01.104641 31177 net.cpp:165] Memory required for data: 633600024
I0502 11:39:01.104645 31177 layer_factory.hpp:77] Creating layer conv4_1/incep/1_0/relu
I0502 11:39:01.104646 31177 net.cpp:100] Creating Layer conv4_1/incep/1_0/relu
I0502 11:39:01.104648 31177 net.cpp:434] conv4_1/incep/1_0/relu <- conv4_1/incep/1_0
I0502 11:39:01.104650 31177 net.cpp:395] conv4_1/incep/1_0/relu -> conv4_1/incep/1_0 (in-place)
I0502 11:39:01.104653 31177 net.cpp:150] Setting up conv4_1/incep/1_0/relu
I0502 11:39:01.104655 31177 net.cpp:157] Top shape: 1 128 40 66 (337920)
I0502 11:39:01.104657 31177 net.cpp:165] Memory required for data: 634951704
I0502 11:39:01.104658 31177 layer_factory.hpp:77] Creating layer conv4_1/incep/2_reduce/conv
I0502 11:39:01.104662 31177 net.cpp:100] Creating Layer conv4_1/incep/2_reduce/conv
I0502 11:39:01.104665 31177 net.cpp:434] conv4_1/incep/2_reduce/conv <- conv3_4_conv3_4_0_split_2
I0502 11:39:01.104667 31177 net.cpp:408] conv4_1/incep/2_reduce/conv -> conv4_1/incep/2_reduce
I0502 11:39:01.104691 31177 net.cpp:150] Setting up conv4_1/incep/2_reduce/conv
I0502 11:39:01.104694 31177 net.cpp:157] Top shape: 1 24 40 66 (63360)
I0502 11:39:01.104696 31177 net.cpp:165] Memory required for data: 635205144
I0502 11:39:01.104698 31177 layer_factory.hpp:77] Creating layer conv4_1/incep/2_reduce/relu
I0502 11:39:01.104701 31177 net.cpp:100] Creating Layer conv4_1/incep/2_reduce/relu
I0502 11:39:01.104703 31177 net.cpp:434] conv4_1/incep/2_reduce/relu <- conv4_1/incep/2_reduce
I0502 11:39:01.104706 31177 net.cpp:395] conv4_1/incep/2_reduce/relu -> conv4_1/incep/2_reduce (in-place)
I0502 11:39:01.104708 31177 net.cpp:150] Setting up conv4_1/incep/2_reduce/relu
I0502 11:39:01.104710 31177 net.cpp:157] Top shape: 1 24 40 66 (63360)
I0502 11:39:01.104712 31177 net.cpp:165] Memory required for data: 635458584
I0502 11:39:01.104713 31177 layer_factory.hpp:77] Creating layer conv4_1/incep/2_0/conv
I0502 11:39:01.104717 31177 net.cpp:100] Creating Layer conv4_1/incep/2_0/conv
I0502 11:39:01.104718 31177 net.cpp:434] conv4_1/incep/2_0/conv <- conv4_1/incep/2_reduce
I0502 11:39:01.104720 31177 net.cpp:408] conv4_1/incep/2_0/conv -> conv4_1/incep/2_0
I0502 11:39:01.104779 31177 net.cpp:150] Setting up conv4_1/incep/2_0/conv
I0502 11:39:01.104781 31177 net.cpp:157] Top shape: 1 48 40 66 (126720)
I0502 11:39:01.104784 31177 net.cpp:165] Memory required for data: 635965464
I0502 11:39:01.104785 31177 layer_factory.hpp:77] Creating layer conv4_1/incep/2_0/relu
I0502 11:39:01.104789 31177 net.cpp:100] Creating Layer conv4_1/incep/2_0/relu
I0502 11:39:01.104790 31177 net.cpp:434] conv4_1/incep/2_0/relu <- conv4_1/incep/2_0
I0502 11:39:01.104792 31177 net.cpp:395] conv4_1/incep/2_0/relu -> conv4_1/incep/2_0 (in-place)
I0502 11:39:01.104794 31177 net.cpp:150] Setting up conv4_1/incep/2_0/relu
I0502 11:39:01.104796 31177 net.cpp:157] Top shape: 1 48 40 66 (126720)
I0502 11:39:01.104799 31177 net.cpp:165] Memory required for data: 636472344
I0502 11:39:01.104800 31177 layer_factory.hpp:77] Creating layer conv4_1/incep/2_1/conv
I0502 11:39:01.104804 31177 net.cpp:100] Creating Layer conv4_1/incep/2_1/conv
I0502 11:39:01.104805 31177 net.cpp:434] conv4_1/incep/2_1/conv <- conv4_1/incep/2_0
I0502 11:39:01.104809 31177 net.cpp:408] conv4_1/incep/2_1/conv -> conv4_1/incep/2_1
I0502 11:39:01.104912 31177 net.cpp:150] Setting up conv4_1/incep/2_1/conv
I0502 11:39:01.104915 31177 net.cpp:157] Top shape: 1 48 40 66 (126720)
I0502 11:39:01.104917 31177 net.cpp:165] Memory required for data: 636979224
I0502 11:39:01.104919 31177 layer_factory.hpp:77] Creating layer conv4_1/incep/2_1/relu
I0502 11:39:01.104921 31177 net.cpp:100] Creating Layer conv4_1/incep/2_1/relu
I0502 11:39:01.104923 31177 net.cpp:434] conv4_1/incep/2_1/relu <- conv4_1/incep/2_1
I0502 11:39:01.104926 31177 net.cpp:395] conv4_1/incep/2_1/relu -> conv4_1/incep/2_1 (in-place)
I0502 11:39:01.104929 31177 net.cpp:150] Setting up conv4_1/incep/2_1/relu
I0502 11:39:01.104931 31177 net.cpp:157] Top shape: 1 48 40 66 (126720)
I0502 11:39:01.104933 31177 net.cpp:165] Memory required for data: 637486104
I0502 11:39:01.104934 31177 layer_factory.hpp:77] Creating layer conv4_1/incep/pool
I0502 11:39:01.104938 31177 net.cpp:100] Creating Layer conv4_1/incep/pool
I0502 11:39:01.104939 31177 net.cpp:434] conv4_1/incep/pool <- conv3_4_conv3_4_0_split_3
I0502 11:39:01.104943 31177 net.cpp:408] conv4_1/incep/pool -> conv4_1/incep/pool
I0502 11:39:01.104946 31177 net.cpp:150] Setting up conv4_1/incep/pool
I0502 11:39:01.107558 31177 net.cpp:157] Top shape: 1 128 40 66 (337920)
I0502 11:39:01.107564 31177 net.cpp:165] Memory required for data: 638837784
I0502 11:39:01.107568 31177 layer_factory.hpp:77] Creating layer conv4_1/incep/poolproj/conv
I0502 11:39:01.107576 31177 net.cpp:100] Creating Layer conv4_1/incep/poolproj/conv
I0502 11:39:01.107580 31177 net.cpp:434] conv4_1/incep/poolproj/conv <- conv4_1/incep/pool
I0502 11:39:01.107586 31177 net.cpp:408] conv4_1/incep/poolproj/conv -> conv4_1/incep/poolproj
I0502 11:39:01.107708 31177 net.cpp:150] Setting up conv4_1/incep/poolproj/conv
I0502 11:39:01.107713 31177 net.cpp:157] Top shape: 1 128 40 66 (337920)
I0502 11:39:01.107717 31177 net.cpp:165] Memory required for data: 640189464
I0502 11:39:01.107722 31177 layer_factory.hpp:77] Creating layer conv4_1/incep/poolproj/relu
I0502 11:39:01.107728 31177 net.cpp:100] Creating Layer conv4_1/incep/poolproj/relu
I0502 11:39:01.107730 31177 net.cpp:434] conv4_1/incep/poolproj/relu <- conv4_1/incep/poolproj
I0502 11:39:01.107734 31177 net.cpp:395] conv4_1/incep/poolproj/relu -> conv4_1/incep/poolproj (in-place)
I0502 11:39:01.107739 31177 net.cpp:150] Setting up conv4_1/incep/poolproj/relu
I0502 11:39:01.107743 31177 net.cpp:157] Top shape: 1 128 40 66 (337920)
I0502 11:39:01.107745 31177 net.cpp:165] Memory required for data: 641541144
I0502 11:39:01.107748 31177 layer_factory.hpp:77] Creating layer conv4_1/incep
I0502 11:39:01.107753 31177 net.cpp:100] Creating Layer conv4_1/incep
I0502 11:39:01.107755 31177 net.cpp:434] conv4_1/incep <- conv4_1/incep/0
I0502 11:39:01.107759 31177 net.cpp:434] conv4_1/incep <- conv4_1/incep/1_0
I0502 11:39:01.107762 31177 net.cpp:434] conv4_1/incep <- conv4_1/incep/2_1
I0502 11:39:01.107766 31177 net.cpp:434] conv4_1/incep <- conv4_1/incep/poolproj
I0502 11:39:01.107771 31177 net.cpp:408] conv4_1/incep -> conv4_1/incep
I0502 11:39:01.107776 31177 net.cpp:150] Setting up conv4_1/incep
I0502 11:39:01.107780 31177 net.cpp:157] Top shape: 1 368 40 66 (971520)
I0502 11:39:01.107784 31177 net.cpp:165] Memory required for data: 645427224
I0502 11:39:01.107786 31177 layer_factory.hpp:77] Creating layer conv4_1/out/conv
I0502 11:39:01.107792 31177 net.cpp:100] Creating Layer conv4_1/out/conv
I0502 11:39:01.107795 31177 net.cpp:434] conv4_1/out/conv <- conv4_1/incep
I0502 11:39:01.107800 31177 net.cpp:408] conv4_1/out/conv -> conv4_1/out
I0502 11:39:01.108249 31177 net.cpp:150] Setting up conv4_1/out/conv
I0502 11:39:01.108253 31177 net.cpp:157] Top shape: 1 256 40 66 (675840)
I0502 11:39:01.108255 31177 net.cpp:165] Memory required for data: 648130584
I0502 11:39:01.108258 31177 layer_factory.hpp:77] Creating layer conv4_1/proj
I0502 11:39:01.108263 31177 net.cpp:100] Creating Layer conv4_1/proj
I0502 11:39:01.108264 31177 net.cpp:434] conv4_1/proj <- conv3_4_conv3_4_0_split_4
I0502 11:39:01.108268 31177 net.cpp:408] conv4_1/proj -> conv4_1/proj
I0502 11:39:01.108429 31177 net.cpp:150] Setting up conv4_1/proj
I0502 11:39:01.108433 31177 net.cpp:157] Top shape: 1 256 40 66 (675840)
I0502 11:39:01.108434 31177 net.cpp:165] Memory required for data: 650833944
I0502 11:39:01.108438 31177 layer_factory.hpp:77] Creating layer conv4_1
I0502 11:39:01.108440 31177 net.cpp:100] Creating Layer conv4_1
I0502 11:39:01.108443 31177 net.cpp:434] conv4_1 <- conv4_1/out
I0502 11:39:01.108444 31177 net.cpp:434] conv4_1 <- conv4_1/proj
I0502 11:39:01.108448 31177 net.cpp:408] conv4_1 -> conv4_1
I0502 11:39:01.108451 31177 net.cpp:150] Setting up conv4_1
I0502 11:39:01.108453 31177 net.cpp:157] Top shape: 1 256 40 66 (675840)
I0502 11:39:01.108455 31177 net.cpp:165] Memory required for data: 653537304
I0502 11:39:01.108458 31177 layer_factory.hpp:77] Creating layer conv4_1_conv4_1_0_split
I0502 11:39:01.108460 31177 net.cpp:100] Creating Layer conv4_1_conv4_1_0_split
I0502 11:39:01.108463 31177 net.cpp:434] conv4_1_conv4_1_0_split <- conv4_1
I0502 11:39:01.108465 31177 net.cpp:408] conv4_1_conv4_1_0_split -> conv4_1_conv4_1_0_split_0
I0502 11:39:01.108469 31177 net.cpp:408] conv4_1_conv4_1_0_split -> conv4_1_conv4_1_0_split_1
I0502 11:39:01.108471 31177 net.cpp:408] conv4_1_conv4_1_0_split -> conv4_1_conv4_1_0_split_2
I0502 11:39:01.108474 31177 net.cpp:408] conv4_1_conv4_1_0_split -> conv4_1_conv4_1_0_split_3
I0502 11:39:01.108479 31177 net.cpp:150] Setting up conv4_1_conv4_1_0_split
I0502 11:39:01.108481 31177 net.cpp:157] Top shape: 1 256 40 66 (675840)
I0502 11:39:01.108484 31177 net.cpp:157] Top shape: 1 256 40 66 (675840)
I0502 11:39:01.108485 31177 net.cpp:157] Top shape: 1 256 40 66 (675840)
I0502 11:39:01.108487 31177 net.cpp:157] Top shape: 1 256 40 66 (675840)
I0502 11:39:01.108489 31177 net.cpp:165] Memory required for data: 664350744
I0502 11:39:01.108490 31177 layer_factory.hpp:77] Creating layer conv4_2/incep/0/conv
I0502 11:39:01.108494 31177 net.cpp:100] Creating Layer conv4_2/incep/0/conv
I0502 11:39:01.108495 31177 net.cpp:434] conv4_2/incep/0/conv <- conv4_1_conv4_1_0_split_0
I0502 11:39:01.108499 31177 net.cpp:408] conv4_2/incep/0/conv -> conv4_2/incep/0
I0502 11:39:01.108582 31177 net.cpp:150] Setting up conv4_2/incep/0/conv
I0502 11:39:01.108584 31177 net.cpp:157] Top shape: 1 64 40 66 (168960)
I0502 11:39:01.108585 31177 net.cpp:165] Memory required for data: 665026584
I0502 11:39:01.108588 31177 layer_factory.hpp:77] Creating layer conv4_2/incep/0/relu
I0502 11:39:01.108592 31177 net.cpp:100] Creating Layer conv4_2/incep/0/relu
I0502 11:39:01.108594 31177 net.cpp:434] conv4_2/incep/0/relu <- conv4_2/incep/0
I0502 11:39:01.108597 31177 net.cpp:395] conv4_2/incep/0/relu -> conv4_2/incep/0 (in-place)
I0502 11:39:01.108599 31177 net.cpp:150] Setting up conv4_2/incep/0/relu
I0502 11:39:01.108602 31177 net.cpp:157] Top shape: 1 64 40 66 (168960)
I0502 11:39:01.108603 31177 net.cpp:165] Memory required for data: 665702424
I0502 11:39:01.108604 31177 layer_factory.hpp:77] Creating layer conv4_2/incep/1_reduce/conv
I0502 11:39:01.108609 31177 net.cpp:100] Creating Layer conv4_2/incep/1_reduce/conv
I0502 11:39:01.108611 31177 net.cpp:434] conv4_2/incep/1_reduce/conv <- conv4_1_conv4_1_0_split_1
I0502 11:39:01.108614 31177 net.cpp:408] conv4_2/incep/1_reduce/conv -> conv4_2/incep/1_reduce
I0502 11:39:01.108700 31177 net.cpp:150] Setting up conv4_2/incep/1_reduce/conv
I0502 11:39:01.108702 31177 net.cpp:157] Top shape: 1 64 40 66 (168960)
I0502 11:39:01.108703 31177 net.cpp:165] Memory required for data: 666378264
I0502 11:39:01.108706 31177 layer_factory.hpp:77] Creating layer conv4_2/incep/1_reduce/relu
I0502 11:39:01.108709 31177 net.cpp:100] Creating Layer conv4_2/incep/1_reduce/relu
I0502 11:39:01.108711 31177 net.cpp:434] conv4_2/incep/1_reduce/relu <- conv4_2/incep/1_reduce
I0502 11:39:01.108714 31177 net.cpp:395] conv4_2/incep/1_reduce/relu -> conv4_2/incep/1_reduce (in-place)
I0502 11:39:01.108716 31177 net.cpp:150] Setting up conv4_2/incep/1_reduce/relu
I0502 11:39:01.108718 31177 net.cpp:157] Top shape: 1 64 40 66 (168960)
I0502 11:39:01.108721 31177 net.cpp:165] Memory required for data: 667054104
I0502 11:39:01.108722 31177 layer_factory.hpp:77] Creating layer conv4_2/incep/1_0/conv
I0502 11:39:01.108726 31177 net.cpp:100] Creating Layer conv4_2/incep/1_0/conv
I0502 11:39:01.108727 31177 net.cpp:434] conv4_2/incep/1_0/conv <- conv4_2/incep/1_reduce
I0502 11:39:01.108729 31177 net.cpp:408] conv4_2/incep/1_0/conv -> conv4_2/incep/1_0
I0502 11:39:01.109084 31177 net.cpp:150] Setting up conv4_2/incep/1_0/conv
I0502 11:39:01.109087 31177 net.cpp:157] Top shape: 1 128 40 66 (337920)
I0502 11:39:01.109089 31177 net.cpp:165] Memory required for data: 668405784
I0502 11:39:01.109092 31177 layer_factory.hpp:77] Creating layer conv4_2/incep/1_0/relu
I0502 11:39:01.109095 31177 net.cpp:100] Creating Layer conv4_2/incep/1_0/relu
I0502 11:39:01.109097 31177 net.cpp:434] conv4_2/incep/1_0/relu <- conv4_2/incep/1_0
I0502 11:39:01.109100 31177 net.cpp:395] conv4_2/incep/1_0/relu -> conv4_2/incep/1_0 (in-place)
I0502 11:39:01.109102 31177 net.cpp:150] Setting up conv4_2/incep/1_0/relu
I0502 11:39:01.109104 31177 net.cpp:157] Top shape: 1 128 40 66 (337920)
I0502 11:39:01.122603 31177 net.cpp:165] Memory required for data: 669757464
I0502 11:39:01.122619 31177 layer_factory.hpp:77] Creating layer conv4_2/incep/2_reduce/conv
I0502 11:39:01.122634 31177 net.cpp:100] Creating Layer conv4_2/incep/2_reduce/conv
I0502 11:39:01.122639 31177 net.cpp:434] conv4_2/incep/2_reduce/conv <- conv4_1_conv4_1_0_split_2
I0502 11:39:01.122644 31177 net.cpp:408] conv4_2/incep/2_reduce/conv -> conv4_2/incep/2_reduce
I0502 11:39:01.122696 31177 net.cpp:150] Setting up conv4_2/incep/2_reduce/conv
I0502 11:39:01.122701 31177 net.cpp:157] Top shape: 1 24 40 66 (63360)
I0502 11:39:01.122704 31177 net.cpp:165] Memory required for data: 670010904
I0502 11:39:01.122707 31177 layer_factory.hpp:77] Creating layer conv4_2/incep/2_reduce/relu
I0502 11:39:01.122710 31177 net.cpp:100] Creating Layer conv4_2/incep/2_reduce/relu
I0502 11:39:01.122714 31177 net.cpp:434] conv4_2/incep/2_reduce/relu <- conv4_2/incep/2_reduce
I0502 11:39:01.122716 31177 net.cpp:395] conv4_2/incep/2_reduce/relu -> conv4_2/incep/2_reduce (in-place)
I0502 11:39:01.122720 31177 net.cpp:150] Setting up conv4_2/incep/2_reduce/relu
I0502 11:39:01.122721 31177 net.cpp:157] Top shape: 1 24 40 66 (63360)
I0502 11:39:01.122723 31177 net.cpp:165] Memory required for data: 670264344
I0502 11:39:01.122725 31177 layer_factory.hpp:77] Creating layer conv4_2/incep/2_0/conv
I0502 11:39:01.122728 31177 net.cpp:100] Creating Layer conv4_2/incep/2_0/conv
I0502 11:39:01.122730 31177 net.cpp:434] conv4_2/incep/2_0/conv <- conv4_2/incep/2_reduce
I0502 11:39:01.122733 31177 net.cpp:408] conv4_2/incep/2_0/conv -> conv4_2/incep/2_0
I0502 11:39:01.122795 31177 net.cpp:150] Setting up conv4_2/incep/2_0/conv
I0502 11:39:01.122798 31177 net.cpp:157] Top shape: 1 48 40 66 (126720)
I0502 11:39:01.122800 31177 net.cpp:165] Memory required for data: 670771224
I0502 11:39:01.122803 31177 layer_factory.hpp:77] Creating layer conv4_2/incep/2_0/relu
I0502 11:39:01.122805 31177 net.cpp:100] Creating Layer conv4_2/incep/2_0/relu
I0502 11:39:01.122807 31177 net.cpp:434] conv4_2/incep/2_0/relu <- conv4_2/incep/2_0
I0502 11:39:01.122809 31177 net.cpp:395] conv4_2/incep/2_0/relu -> conv4_2/incep/2_0 (in-place)
I0502 11:39:01.122812 31177 net.cpp:150] Setting up conv4_2/incep/2_0/relu
I0502 11:39:01.122814 31177 net.cpp:157] Top shape: 1 48 40 66 (126720)
I0502 11:39:01.122817 31177 net.cpp:165] Memory required for data: 671278104
I0502 11:39:01.122818 31177 layer_factory.hpp:77] Creating layer conv4_2/incep/2_1/conv
I0502 11:39:01.122822 31177 net.cpp:100] Creating Layer conv4_2/incep/2_1/conv
I0502 11:39:01.122823 31177 net.cpp:434] conv4_2/incep/2_1/conv <- conv4_2/incep/2_0
I0502 11:39:01.122828 31177 net.cpp:408] conv4_2/incep/2_1/conv -> conv4_2/incep/2_1
I0502 11:39:01.122933 31177 net.cpp:150] Setting up conv4_2/incep/2_1/conv
I0502 11:39:01.122936 31177 net.cpp:157] Top shape: 1 48 40 66 (126720)
I0502 11:39:01.122937 31177 net.cpp:165] Memory required for data: 671784984
I0502 11:39:01.122941 31177 layer_factory.hpp:77] Creating layer conv4_2/incep/2_1/relu
I0502 11:39:01.122942 31177 net.cpp:100] Creating Layer conv4_2/incep/2_1/relu
I0502 11:39:01.122944 31177 net.cpp:434] conv4_2/incep/2_1/relu <- conv4_2/incep/2_1
I0502 11:39:01.122947 31177 net.cpp:395] conv4_2/incep/2_1/relu -> conv4_2/incep/2_1 (in-place)
I0502 11:39:01.122949 31177 net.cpp:150] Setting up conv4_2/incep/2_1/relu
I0502 11:39:01.122951 31177 net.cpp:157] Top shape: 1 48 40 66 (126720)
I0502 11:39:01.122953 31177 net.cpp:165] Memory required for data: 672291864
I0502 11:39:01.122956 31177 layer_factory.hpp:77] Creating layer conv4_2/incep
I0502 11:39:01.122957 31177 net.cpp:100] Creating Layer conv4_2/incep
I0502 11:39:01.122959 31177 net.cpp:434] conv4_2/incep <- conv4_2/incep/0
I0502 11:39:01.122962 31177 net.cpp:434] conv4_2/incep <- conv4_2/incep/1_0
I0502 11:39:01.122964 31177 net.cpp:434] conv4_2/incep <- conv4_2/incep/2_1
I0502 11:39:01.122967 31177 net.cpp:408] conv4_2/incep -> conv4_2/incep
I0502 11:39:01.122970 31177 net.cpp:150] Setting up conv4_2/incep
I0502 11:39:01.122973 31177 net.cpp:157] Top shape: 1 240 40 66 (633600)
I0502 11:39:01.122974 31177 net.cpp:165] Memory required for data: 674826264
I0502 11:39:01.122977 31177 layer_factory.hpp:77] Creating layer conv4_2/out/conv
I0502 11:39:01.122980 31177 net.cpp:100] Creating Layer conv4_2/out/conv
I0502 11:39:01.122982 31177 net.cpp:434] conv4_2/out/conv <- conv4_2/incep
I0502 11:39:01.122985 31177 net.cpp:408] conv4_2/out/conv -> conv4_2/out
I0502 11:39:01.123275 31177 net.cpp:150] Setting up conv4_2/out/conv
I0502 11:39:01.123278 31177 net.cpp:157] Top shape: 1 256 40 66 (675840)
I0502 11:39:01.123281 31177 net.cpp:165] Memory required for data: 677529624
I0502 11:39:01.123283 31177 layer_factory.hpp:77] Creating layer conv4_2
I0502 11:39:01.123286 31177 net.cpp:100] Creating Layer conv4_2
I0502 11:39:01.123288 31177 net.cpp:434] conv4_2 <- conv4_2/out
I0502 11:39:01.123291 31177 net.cpp:434] conv4_2 <- conv4_1_conv4_1_0_split_3
I0502 11:39:01.123294 31177 net.cpp:408] conv4_2 -> conv4_2
I0502 11:39:01.123298 31177 net.cpp:150] Setting up conv4_2
I0502 11:39:01.123301 31177 net.cpp:157] Top shape: 1 256 40 66 (675840)
I0502 11:39:01.123302 31177 net.cpp:165] Memory required for data: 680232984
I0502 11:39:01.123304 31177 layer_factory.hpp:77] Creating layer conv4_2_conv4_2_0_split
I0502 11:39:01.123307 31177 net.cpp:100] Creating Layer conv4_2_conv4_2_0_split
I0502 11:39:01.123309 31177 net.cpp:434] conv4_2_conv4_2_0_split <- conv4_2
I0502 11:39:01.123312 31177 net.cpp:408] conv4_2_conv4_2_0_split -> conv4_2_conv4_2_0_split_0
I0502 11:39:01.123316 31177 net.cpp:408] conv4_2_conv4_2_0_split -> conv4_2_conv4_2_0_split_1
I0502 11:39:01.123318 31177 net.cpp:408] conv4_2_conv4_2_0_split -> conv4_2_conv4_2_0_split_2
I0502 11:39:01.123322 31177 net.cpp:408] conv4_2_conv4_2_0_split -> conv4_2_conv4_2_0_split_3
I0502 11:39:01.123327 31177 net.cpp:150] Setting up conv4_2_conv4_2_0_split
I0502 11:39:01.123328 31177 net.cpp:157] Top shape: 1 256 40 66 (675840)
I0502 11:39:01.123330 31177 net.cpp:157] Top shape: 1 256 40 66 (675840)
I0502 11:39:01.123332 31177 net.cpp:157] Top shape: 1 256 40 66 (675840)
I0502 11:39:01.123334 31177 net.cpp:157] Top shape: 1 256 40 66 (675840)
I0502 11:39:01.123335 31177 net.cpp:165] Memory required for data: 691046424
I0502 11:39:01.123337 31177 layer_factory.hpp:77] Creating layer conv4_3/incep/0/conv
I0502 11:39:01.123340 31177 net.cpp:100] Creating Layer conv4_3/incep/0/conv
I0502 11:39:01.123342 31177 net.cpp:434] conv4_3/incep/0/conv <- conv4_2_conv4_2_0_split_0
I0502 11:39:01.123347 31177 net.cpp:408] conv4_3/incep/0/conv -> conv4_3/incep/0
I0502 11:39:01.123431 31177 net.cpp:150] Setting up conv4_3/incep/0/conv
I0502 11:39:01.123433 31177 net.cpp:157] Top shape: 1 64 40 66 (168960)
I0502 11:39:01.123435 31177 net.cpp:165] Memory required for data: 691722264
I0502 11:39:01.123438 31177 layer_factory.hpp:77] Creating layer conv4_3/incep/0/relu
I0502 11:39:01.123440 31177 net.cpp:100] Creating Layer conv4_3/incep/0/relu
I0502 11:39:01.123442 31177 net.cpp:434] conv4_3/incep/0/relu <- conv4_3/incep/0
I0502 11:39:01.123446 31177 net.cpp:395] conv4_3/incep/0/relu -> conv4_3/incep/0 (in-place)
I0502 11:39:01.123450 31177 net.cpp:150] Setting up conv4_3/incep/0/relu
I0502 11:39:01.123451 31177 net.cpp:157] Top shape: 1 64 40 66 (168960)
I0502 11:39:01.123453 31177 net.cpp:165] Memory required for data: 692398104
I0502 11:39:01.123456 31177 layer_factory.hpp:77] Creating layer conv4_3/incep/1_reduce/conv
I0502 11:39:01.123458 31177 net.cpp:100] Creating Layer conv4_3/incep/1_reduce/conv
I0502 11:39:01.123461 31177 net.cpp:434] conv4_3/incep/1_reduce/conv <- conv4_2_conv4_2_0_split_1
I0502 11:39:01.123463 31177 net.cpp:408] conv4_3/incep/1_reduce/conv -> conv4_3/incep/1_reduce
I0502 11:39:01.123546 31177 net.cpp:150] Setting up conv4_3/incep/1_reduce/conv
I0502 11:39:01.123549 31177 net.cpp:157] Top shape: 1 64 40 66 (168960)
I0502 11:39:01.123550 31177 net.cpp:165] Memory required for data: 693073944
I0502 11:39:01.123553 31177 layer_factory.hpp:77] Creating layer conv4_3/incep/1_reduce/relu
I0502 11:39:01.124217 31177 net.cpp:100] Creating Layer conv4_3/incep/1_reduce/relu
I0502 11:39:01.124225 31177 net.cpp:434] conv4_3/incep/1_reduce/relu <- conv4_3/incep/1_reduce
I0502 11:39:01.124233 31177 net.cpp:395] conv4_3/incep/1_reduce/relu -> conv4_3/incep/1_reduce (in-place)
I0502 11:39:01.124238 31177 net.cpp:150] Setting up conv4_3/incep/1_reduce/relu
I0502 11:39:01.124241 31177 net.cpp:157] Top shape: 1 64 40 66 (168960)
I0502 11:39:01.124243 31177 net.cpp:165] Memory required for data: 693749784
I0502 11:39:01.124245 31177 layer_factory.hpp:77] Creating layer conv4_3/incep/1_0/conv
I0502 11:39:01.124259 31177 net.cpp:100] Creating Layer conv4_3/incep/1_0/conv
I0502 11:39:01.124263 31177 net.cpp:434] conv4_3/incep/1_0/conv <- conv4_3/incep/1_reduce
I0502 11:39:01.124265 31177 net.cpp:408] conv4_3/incep/1_0/conv -> conv4_3/incep/1_0
I0502 11:39:01.124619 31177 net.cpp:150] Setting up conv4_3/incep/1_0/conv
I0502 11:39:01.124621 31177 net.cpp:157] Top shape: 1 128 40 66 (337920)
I0502 11:39:01.124624 31177 net.cpp:165] Memory required for data: 695101464
I0502 11:39:01.124626 31177 layer_factory.hpp:77] Creating layer conv4_3/incep/1_0/relu
I0502 11:39:01.124629 31177 net.cpp:100] Creating Layer conv4_3/incep/1_0/relu
I0502 11:39:01.124631 31177 net.cpp:434] conv4_3/incep/1_0/relu <- conv4_3/incep/1_0
I0502 11:39:01.124634 31177 net.cpp:395] conv4_3/incep/1_0/relu -> conv4_3/incep/1_0 (in-place)
I0502 11:39:01.124636 31177 net.cpp:150] Setting up conv4_3/incep/1_0/relu
I0502 11:39:01.124639 31177 net.cpp:157] Top shape: 1 128 40 66 (337920)
I0502 11:39:01.124640 31177 net.cpp:165] Memory required for data: 696453144
I0502 11:39:01.124642 31177 layer_factory.hpp:77] Creating layer conv4_3/incep/2_reduce/conv
I0502 11:39:01.124646 31177 net.cpp:100] Creating Layer conv4_3/incep/2_reduce/conv
I0502 11:39:01.124649 31177 net.cpp:434] conv4_3/incep/2_reduce/conv <- conv4_2_conv4_2_0_split_2
I0502 11:39:01.124651 31177 net.cpp:408] conv4_3/incep/2_reduce/conv -> conv4_3/incep/2_reduce
I0502 11:39:01.124691 31177 net.cpp:150] Setting up conv4_3/incep/2_reduce/conv
I0502 11:39:01.124692 31177 net.cpp:157] Top shape: 1 24 40 66 (63360)
I0502 11:39:01.124694 31177 net.cpp:165] Memory required for data: 696706584
I0502 11:39:01.124697 31177 layer_factory.hpp:77] Creating layer conv4_3/incep/2_reduce/relu
I0502 11:39:01.124701 31177 net.cpp:100] Creating Layer conv4_3/incep/2_reduce/relu
I0502 11:39:01.124702 31177 net.cpp:434] conv4_3/incep/2_reduce/relu <- conv4_3/incep/2_reduce
I0502 11:39:01.124704 31177 net.cpp:395] conv4_3/incep/2_reduce/relu -> conv4_3/incep/2_reduce (in-place)
I0502 11:39:01.124706 31177 net.cpp:150] Setting up conv4_3/incep/2_reduce/relu
I0502 11:39:01.124709 31177 net.cpp:157] Top shape: 1 24 40 66 (63360)
I0502 11:39:01.124711 31177 net.cpp:165] Memory required for data: 696960024
I0502 11:39:01.124712 31177 layer_factory.hpp:77] Creating layer conv4_3/incep/2_0/conv
I0502 11:39:01.124716 31177 net.cpp:100] Creating Layer conv4_3/incep/2_0/conv
I0502 11:39:01.124717 31177 net.cpp:434] conv4_3/incep/2_0/conv <- conv4_3/incep/2_reduce
I0502 11:39:01.124720 31177 net.cpp:408] conv4_3/incep/2_0/conv -> conv4_3/incep/2_0
I0502 11:39:01.124779 31177 net.cpp:150] Setting up conv4_3/incep/2_0/conv
I0502 11:39:01.124783 31177 net.cpp:157] Top shape: 1 48 40 66 (126720)
I0502 11:39:01.124783 31177 net.cpp:165] Memory required for data: 697466904
I0502 11:39:01.124786 31177 layer_factory.hpp:77] Creating layer conv4_3/incep/2_0/relu
I0502 11:39:01.124788 31177 net.cpp:100] Creating Layer conv4_3/incep/2_0/relu
I0502 11:39:01.124790 31177 net.cpp:434] conv4_3/incep/2_0/relu <- conv4_3/incep/2_0
I0502 11:39:01.124792 31177 net.cpp:395] conv4_3/incep/2_0/relu -> conv4_3/incep/2_0 (in-place)
I0502 11:39:01.124795 31177 net.cpp:150] Setting up conv4_3/incep/2_0/relu
I0502 11:39:01.124797 31177 net.cpp:157] Top shape: 1 48 40 66 (126720)
I0502 11:39:01.124799 31177 net.cpp:165] Memory required for data: 697973784
I0502 11:39:01.124800 31177 layer_factory.hpp:77] Creating layer conv4_3/incep/2_1/conv
I0502 11:39:01.124804 31177 net.cpp:100] Creating Layer conv4_3/incep/2_1/conv
I0502 11:39:01.124806 31177 net.cpp:434] conv4_3/incep/2_1/conv <- conv4_3/incep/2_0
I0502 11:39:01.124809 31177 net.cpp:408] conv4_3/incep/2_1/conv -> conv4_3/incep/2_1
I0502 11:39:01.124912 31177 net.cpp:150] Setting up conv4_3/incep/2_1/conv
I0502 11:39:01.124914 31177 net.cpp:157] Top shape: 1 48 40 66 (126720)
I0502 11:39:01.124917 31177 net.cpp:165] Memory required for data: 698480664
I0502 11:39:01.124918 31177 layer_factory.hpp:77] Creating layer conv4_3/incep/2_1/relu
I0502 11:39:01.124922 31177 net.cpp:100] Creating Layer conv4_3/incep/2_1/relu
I0502 11:39:01.124923 31177 net.cpp:434] conv4_3/incep/2_1/relu <- conv4_3/incep/2_1
I0502 11:39:01.124925 31177 net.cpp:395] conv4_3/incep/2_1/relu -> conv4_3/incep/2_1 (in-place)
I0502 11:39:01.124928 31177 net.cpp:150] Setting up conv4_3/incep/2_1/relu
I0502 11:39:01.124930 31177 net.cpp:157] Top shape: 1 48 40 66 (126720)
I0502 11:39:01.124931 31177 net.cpp:165] Memory required for data: 698987544
I0502 11:39:01.124933 31177 layer_factory.hpp:77] Creating layer conv4_3/incep
I0502 11:39:01.124935 31177 net.cpp:100] Creating Layer conv4_3/incep
I0502 11:39:01.124938 31177 net.cpp:434] conv4_3/incep <- conv4_3/incep/0
I0502 11:39:01.124939 31177 net.cpp:434] conv4_3/incep <- conv4_3/incep/1_0
I0502 11:39:01.124941 31177 net.cpp:434] conv4_3/incep <- conv4_3/incep/2_1
I0502 11:39:01.124944 31177 net.cpp:408] conv4_3/incep -> conv4_3/incep
I0502 11:39:01.124948 31177 net.cpp:150] Setting up conv4_3/incep
I0502 11:39:01.124949 31177 net.cpp:157] Top shape: 1 240 40 66 (633600)
I0502 11:39:01.124951 31177 net.cpp:165] Memory required for data: 701521944
I0502 11:39:01.124953 31177 layer_factory.hpp:77] Creating layer conv4_3/out/conv
I0502 11:39:01.124956 31177 net.cpp:100] Creating Layer conv4_3/out/conv
I0502 11:39:01.124958 31177 net.cpp:434] conv4_3/out/conv <- conv4_3/incep
I0502 11:39:01.124963 31177 net.cpp:408] conv4_3/out/conv -> conv4_3/out
I0502 11:39:01.125270 31177 net.cpp:150] Setting up conv4_3/out/conv
I0502 11:39:01.125275 31177 net.cpp:157] Top shape: 1 256 40 66 (675840)
I0502 11:39:01.125277 31177 net.cpp:165] Memory required for data: 704225304
I0502 11:39:01.125279 31177 layer_factory.hpp:77] Creating layer conv4_3
I0502 11:39:01.125284 31177 net.cpp:100] Creating Layer conv4_3
I0502 11:39:01.125286 31177 net.cpp:434] conv4_3 <- conv4_3/out
I0502 11:39:01.125288 31177 net.cpp:434] conv4_3 <- conv4_2_conv4_2_0_split_3
I0502 11:39:01.125291 31177 net.cpp:408] conv4_3 -> conv4_3
I0502 11:39:01.125295 31177 net.cpp:150] Setting up conv4_3
I0502 11:39:01.125298 31177 net.cpp:157] Top shape: 1 256 40 66 (675840)
I0502 11:39:01.125299 31177 net.cpp:165] Memory required for data: 706928664
I0502 11:39:01.125300 31177 layer_factory.hpp:77] Creating layer conv4_3_conv4_3_0_split
I0502 11:39:01.125303 31177 net.cpp:100] Creating Layer conv4_3_conv4_3_0_split
I0502 11:39:01.125305 31177 net.cpp:434] conv4_3_conv4_3_0_split <- conv4_3
I0502 11:39:01.125308 31177 net.cpp:408] conv4_3_conv4_3_0_split -> conv4_3_conv4_3_0_split_0
I0502 11:39:01.125313 31177 net.cpp:408] conv4_3_conv4_3_0_split -> conv4_3_conv4_3_0_split_1
I0502 11:39:01.125315 31177 net.cpp:408] conv4_3_conv4_3_0_split -> conv4_3_conv4_3_0_split_2
I0502 11:39:01.125319 31177 net.cpp:408] conv4_3_conv4_3_0_split -> conv4_3_conv4_3_0_split_3
I0502 11:39:01.125322 31177 net.cpp:150] Setting up conv4_3_conv4_3_0_split
I0502 11:39:01.125324 31177 net.cpp:157] Top shape: 1 256 40 66 (675840)
I0502 11:39:01.125326 31177 net.cpp:157] Top shape: 1 256 40 66 (675840)
I0502 11:39:01.125329 31177 net.cpp:157] Top shape: 1 256 40 66 (675840)
I0502 11:39:01.125330 31177 net.cpp:157] Top shape: 1 256 40 66 (675840)
I0502 11:39:01.125332 31177 net.cpp:165] Memory required for data: 717742104
I0502 11:39:01.125334 31177 layer_factory.hpp:77] Creating layer conv4_4/incep/0/conv
I0502 11:39:01.125337 31177 net.cpp:100] Creating Layer conv4_4/incep/0/conv
I0502 11:39:01.125339 31177 net.cpp:434] conv4_4/incep/0/conv <- conv4_3_conv4_3_0_split_0
I0502 11:39:01.155905 31177 net.cpp:408] conv4_4/incep/0/conv -> conv4_4/incep/0
I0502 11:39:01.156038 31177 net.cpp:150] Setting up conv4_4/incep/0/conv
I0502 11:39:01.156044 31177 net.cpp:157] Top shape: 1 64 40 66 (168960)
I0502 11:39:01.156046 31177 net.cpp:165] Memory required for data: 718417944
I0502 11:39:01.156051 31177 layer_factory.hpp:77] Creating layer conv4_4/incep/0/relu
I0502 11:39:01.156055 31177 net.cpp:100] Creating Layer conv4_4/incep/0/relu
I0502 11:39:01.156057 31177 net.cpp:434] conv4_4/incep/0/relu <- conv4_4/incep/0
I0502 11:39:01.156061 31177 net.cpp:395] conv4_4/incep/0/relu -> conv4_4/incep/0 (in-place)
I0502 11:39:01.156064 31177 net.cpp:150] Setting up conv4_4/incep/0/relu
I0502 11:39:01.156067 31177 net.cpp:157] Top shape: 1 64 40 66 (168960)
I0502 11:39:01.156069 31177 net.cpp:165] Memory required for data: 719093784
I0502 11:39:01.156070 31177 layer_factory.hpp:77] Creating layer conv4_4/incep/1_reduce/conv
I0502 11:39:01.156075 31177 net.cpp:100] Creating Layer conv4_4/incep/1_reduce/conv
I0502 11:39:01.156077 31177 net.cpp:434] conv4_4/incep/1_reduce/conv <- conv4_3_conv4_3_0_split_1
I0502 11:39:01.156080 31177 net.cpp:408] conv4_4/incep/1_reduce/conv -> conv4_4/incep/1_reduce
I0502 11:39:01.156167 31177 net.cpp:150] Setting up conv4_4/incep/1_reduce/conv
I0502 11:39:01.156169 31177 net.cpp:157] Top shape: 1 64 40 66 (168960)
I0502 11:39:01.156172 31177 net.cpp:165] Memory required for data: 719769624
I0502 11:39:01.156174 31177 layer_factory.hpp:77] Creating layer conv4_4/incep/1_reduce/relu
I0502 11:39:01.156177 31177 net.cpp:100] Creating Layer conv4_4/incep/1_reduce/relu
I0502 11:39:01.156178 31177 net.cpp:434] conv4_4/incep/1_reduce/relu <- conv4_4/incep/1_reduce
I0502 11:39:01.156181 31177 net.cpp:395] conv4_4/incep/1_reduce/relu -> conv4_4/incep/1_reduce (in-place)
I0502 11:39:01.156184 31177 net.cpp:150] Setting up conv4_4/incep/1_reduce/relu
I0502 11:39:01.156188 31177 net.cpp:157] Top shape: 1 64 40 66 (168960)
I0502 11:39:01.156188 31177 net.cpp:165] Memory required for data: 720445464
I0502 11:39:01.156190 31177 layer_factory.hpp:77] Creating layer conv4_4/incep/1_0/conv
I0502 11:39:01.156193 31177 net.cpp:100] Creating Layer conv4_4/incep/1_0/conv
I0502 11:39:01.156195 31177 net.cpp:434] conv4_4/incep/1_0/conv <- conv4_4/incep/1_reduce
I0502 11:39:01.156198 31177 net.cpp:408] conv4_4/incep/1_0/conv -> conv4_4/incep/1_0
I0502 11:39:01.156544 31177 net.cpp:150] Setting up conv4_4/incep/1_0/conv
I0502 11:39:01.156548 31177 net.cpp:157] Top shape: 1 128 40 66 (337920)
I0502 11:39:01.156548 31177 net.cpp:165] Memory required for data: 721797144
I0502 11:39:01.156551 31177 layer_factory.hpp:77] Creating layer conv4_4/incep/1_0/relu
I0502 11:39:01.156554 31177 net.cpp:100] Creating Layer conv4_4/incep/1_0/relu
I0502 11:39:01.156556 31177 net.cpp:434] conv4_4/incep/1_0/relu <- conv4_4/incep/1_0
I0502 11:39:01.156558 31177 net.cpp:395] conv4_4/incep/1_0/relu -> conv4_4/incep/1_0 (in-place)
I0502 11:39:01.156561 31177 net.cpp:150] Setting up conv4_4/incep/1_0/relu
I0502 11:39:01.156563 31177 net.cpp:157] Top shape: 1 128 40 66 (337920)
I0502 11:39:01.156565 31177 net.cpp:165] Memory required for data: 723148824
I0502 11:39:01.156567 31177 layer_factory.hpp:77] Creating layer conv4_4/incep/2_reduce/conv
I0502 11:39:01.156570 31177 net.cpp:100] Creating Layer conv4_4/incep/2_reduce/conv
I0502 11:39:01.156572 31177 net.cpp:434] conv4_4/incep/2_reduce/conv <- conv4_3_conv4_3_0_split_2
I0502 11:39:01.156575 31177 net.cpp:408] conv4_4/incep/2_reduce/conv -> conv4_4/incep/2_reduce
I0502 11:39:01.156613 31177 net.cpp:150] Setting up conv4_4/incep/2_reduce/conv
I0502 11:39:01.156616 31177 net.cpp:157] Top shape: 1 24 40 66 (63360)
I0502 11:39:01.156617 31177 net.cpp:165] Memory required for data: 723402264
I0502 11:39:01.156620 31177 layer_factory.hpp:77] Creating layer conv4_4/incep/2_reduce/relu
I0502 11:39:01.156622 31177 net.cpp:100] Creating Layer conv4_4/incep/2_reduce/relu
I0502 11:39:01.156625 31177 net.cpp:434] conv4_4/incep/2_reduce/relu <- conv4_4/incep/2_reduce
I0502 11:39:01.156628 31177 net.cpp:395] conv4_4/incep/2_reduce/relu -> conv4_4/incep/2_reduce (in-place)
I0502 11:39:01.156630 31177 net.cpp:150] Setting up conv4_4/incep/2_reduce/relu
I0502 11:39:01.156633 31177 net.cpp:157] Top shape: 1 24 40 66 (63360)
I0502 11:39:01.156635 31177 net.cpp:165] Memory required for data: 723655704
I0502 11:39:01.156636 31177 layer_factory.hpp:77] Creating layer conv4_4/incep/2_0/conv
I0502 11:39:01.156639 31177 net.cpp:100] Creating Layer conv4_4/incep/2_0/conv
I0502 11:39:01.156641 31177 net.cpp:434] conv4_4/incep/2_0/conv <- conv4_4/incep/2_reduce
I0502 11:39:01.156644 31177 net.cpp:408] conv4_4/incep/2_0/conv -> conv4_4/incep/2_0
I0502 11:39:01.156702 31177 net.cpp:150] Setting up conv4_4/incep/2_0/conv
I0502 11:39:01.156704 31177 net.cpp:157] Top shape: 1 48 40 66 (126720)
I0502 11:39:01.156707 31177 net.cpp:165] Memory required for data: 724162584
I0502 11:39:01.156708 31177 layer_factory.hpp:77] Creating layer conv4_4/incep/2_0/relu
I0502 11:39:01.156711 31177 net.cpp:100] Creating Layer conv4_4/incep/2_0/relu
I0502 11:39:01.156713 31177 net.cpp:434] conv4_4/incep/2_0/relu <- conv4_4/incep/2_0
I0502 11:39:01.156715 31177 net.cpp:395] conv4_4/incep/2_0/relu -> conv4_4/incep/2_0 (in-place)
I0502 11:39:01.156718 31177 net.cpp:150] Setting up conv4_4/incep/2_0/relu
I0502 11:39:01.156720 31177 net.cpp:157] Top shape: 1 48 40 66 (126720)
I0502 11:39:01.156723 31177 net.cpp:165] Memory required for data: 724669464
I0502 11:39:01.156723 31177 layer_factory.hpp:77] Creating layer conv4_4/incep/2_1/conv
I0502 11:39:01.156728 31177 net.cpp:100] Creating Layer conv4_4/incep/2_1/conv
I0502 11:39:01.156729 31177 net.cpp:434] conv4_4/incep/2_1/conv <- conv4_4/incep/2_0
I0502 11:39:01.156731 31177 net.cpp:408] conv4_4/incep/2_1/conv -> conv4_4/incep/2_1
I0502 11:39:01.156836 31177 net.cpp:150] Setting up conv4_4/incep/2_1/conv
I0502 11:39:01.156838 31177 net.cpp:157] Top shape: 1 48 40 66 (126720)
I0502 11:39:01.156841 31177 net.cpp:165] Memory required for data: 725176344
I0502 11:39:01.156843 31177 layer_factory.hpp:77] Creating layer conv4_4/incep/2_1/relu
I0502 11:39:01.156846 31177 net.cpp:100] Creating Layer conv4_4/incep/2_1/relu
I0502 11:39:01.156847 31177 net.cpp:434] conv4_4/incep/2_1/relu <- conv4_4/incep/2_1
I0502 11:39:01.156849 31177 net.cpp:395] conv4_4/incep/2_1/relu -> conv4_4/incep/2_1 (in-place)
I0502 11:39:01.156852 31177 net.cpp:150] Setting up conv4_4/incep/2_1/relu
I0502 11:39:01.156854 31177 net.cpp:157] Top shape: 1 48 40 66 (126720)
I0502 11:39:01.156855 31177 net.cpp:165] Memory required for data: 725683224
I0502 11:39:01.156857 31177 layer_factory.hpp:77] Creating layer conv4_4/incep
I0502 11:39:01.156860 31177 net.cpp:100] Creating Layer conv4_4/incep
I0502 11:39:01.156862 31177 net.cpp:434] conv4_4/incep <- conv4_4/incep/0
I0502 11:39:01.156864 31177 net.cpp:434] conv4_4/incep <- conv4_4/incep/1_0
I0502 11:39:01.156867 31177 net.cpp:434] conv4_4/incep <- conv4_4/incep/2_1
I0502 11:39:01.156869 31177 net.cpp:408] conv4_4/incep -> conv4_4/incep
I0502 11:39:01.156873 31177 net.cpp:150] Setting up conv4_4/incep
I0502 11:39:01.156877 31177 net.cpp:157] Top shape: 1 240 40 66 (633600)
I0502 11:39:01.156877 31177 net.cpp:165] Memory required for data: 728217624
I0502 11:39:01.156879 31177 layer_factory.hpp:77] Creating layer conv4_4/out/conv
I0502 11:39:01.156883 31177 net.cpp:100] Creating Layer conv4_4/out/conv
I0502 11:39:01.156885 31177 net.cpp:434] conv4_4/out/conv <- conv4_4/incep
I0502 11:39:01.156888 31177 net.cpp:408] conv4_4/out/conv -> conv4_4/out
I0502 11:39:01.157191 31177 net.cpp:150] Setting up conv4_4/out/conv
I0502 11:39:01.157196 31177 net.cpp:157] Top shape: 1 256 40 66 (675840)
I0502 11:39:01.157197 31177 net.cpp:165] Memory required for data: 730920984
I0502 11:39:01.157200 31177 layer_factory.hpp:77] Creating layer conv4_4
I0502 11:39:01.157204 31177 net.cpp:100] Creating Layer conv4_4
I0502 11:39:01.157207 31177 net.cpp:434] conv4_4 <- conv4_4/out
I0502 11:39:01.157208 31177 net.cpp:434] conv4_4 <- conv4_3_conv4_3_0_split_3
I0502 11:39:01.185053 31177 net.cpp:408] conv4_4 -> conv4_4
I0502 11:39:01.185075 31177 net.cpp:150] Setting up conv4_4
I0502 11:39:01.185081 31177 net.cpp:157] Top shape: 1 256 40 66 (675840)
I0502 11:39:01.185082 31177 net.cpp:165] Memory required for data: 733624344
I0502 11:39:01.185084 31177 layer_factory.hpp:77] Creating layer conv4_4_conv4_4_0_split
I0502 11:39:01.185091 31177 net.cpp:100] Creating Layer conv4_4_conv4_4_0_split
I0502 11:39:01.185094 31177 net.cpp:434] conv4_4_conv4_4_0_split <- conv4_4
I0502 11:39:01.185098 31177 net.cpp:408] conv4_4_conv4_4_0_split -> conv4_4_conv4_4_0_split_0
I0502 11:39:01.185101 31177 net.cpp:408] conv4_4_conv4_4_0_split -> conv4_4_conv4_4_0_split_1
I0502 11:39:01.185106 31177 net.cpp:408] conv4_4_conv4_4_0_split -> conv4_4_conv4_4_0_split_2
I0502 11:39:01.185108 31177 net.cpp:408] conv4_4_conv4_4_0_split -> conv4_4_conv4_4_0_split_3
I0502 11:39:01.185111 31177 net.cpp:408] conv4_4_conv4_4_0_split -> conv4_4_conv4_4_0_split_4
I0502 11:39:01.185114 31177 net.cpp:408] conv4_4_conv4_4_0_split -> conv4_4_conv4_4_0_split_5
I0502 11:39:01.185119 31177 net.cpp:150] Setting up conv4_4_conv4_4_0_split
I0502 11:39:01.185122 31177 net.cpp:157] Top shape: 1 256 40 66 (675840)
I0502 11:39:01.185123 31177 net.cpp:157] Top shape: 1 256 40 66 (675840)
I0502 11:39:01.185125 31177 net.cpp:157] Top shape: 1 256 40 66 (675840)
I0502 11:39:01.185127 31177 net.cpp:157] Top shape: 1 256 40 66 (675840)
I0502 11:39:01.185129 31177 net.cpp:157] Top shape: 1 256 40 66 (675840)
I0502 11:39:01.185132 31177 net.cpp:157] Top shape: 1 256 40 66 (675840)
I0502 11:39:01.185133 31177 net.cpp:165] Memory required for data: 749844504
I0502 11:39:01.185134 31177 layer_factory.hpp:77] Creating layer conv5_1/incep/0/conv
I0502 11:39:01.185142 31177 net.cpp:100] Creating Layer conv5_1/incep/0/conv
I0502 11:39:01.185143 31177 net.cpp:434] conv5_1/incep/0/conv <- conv4_4_conv4_4_0_split_0
I0502 11:39:01.185145 31177 net.cpp:408] conv5_1/incep/0/conv -> conv5_1/incep/0
I0502 11:39:01.185235 31177 net.cpp:150] Setting up conv5_1/incep/0/conv
I0502 11:39:01.185238 31177 net.cpp:157] Top shape: 1 64 20 33 (42240)
I0502 11:39:01.185240 31177 net.cpp:165] Memory required for data: 750013464
I0502 11:39:01.185245 31177 layer_factory.hpp:77] Creating layer conv5_1/incep/0/relu
I0502 11:39:01.185247 31177 net.cpp:100] Creating Layer conv5_1/incep/0/relu
I0502 11:39:01.185250 31177 net.cpp:434] conv5_1/incep/0/relu <- conv5_1/incep/0
I0502 11:39:01.185252 31177 net.cpp:395] conv5_1/incep/0/relu -> conv5_1/incep/0 (in-place)
I0502 11:39:01.185256 31177 net.cpp:150] Setting up conv5_1/incep/0/relu
I0502 11:39:01.185257 31177 net.cpp:157] Top shape: 1 64 20 33 (42240)
I0502 11:39:01.185259 31177 net.cpp:165] Memory required for data: 750182424
I0502 11:39:01.185261 31177 layer_factory.hpp:77] Creating layer conv5_1/incep/1_reduce/conv
I0502 11:39:01.185264 31177 net.cpp:100] Creating Layer conv5_1/incep/1_reduce/conv
I0502 11:39:01.185266 31177 net.cpp:434] conv5_1/incep/1_reduce/conv <- conv4_4_conv4_4_0_split_1
I0502 11:39:01.185269 31177 net.cpp:408] conv5_1/incep/1_reduce/conv -> conv5_1/incep/1_reduce
I0502 11:39:01.185396 31177 net.cpp:150] Setting up conv5_1/incep/1_reduce/conv
I0502 11:39:01.185400 31177 net.cpp:157] Top shape: 1 96 20 33 (63360)
I0502 11:39:01.185400 31177 net.cpp:165] Memory required for data: 750435864
I0502 11:39:01.185403 31177 layer_factory.hpp:77] Creating layer conv5_1/incep/1_reduce/relu
I0502 11:39:01.185406 31177 net.cpp:100] Creating Layer conv5_1/incep/1_reduce/relu
I0502 11:39:01.185408 31177 net.cpp:434] conv5_1/incep/1_reduce/relu <- conv5_1/incep/1_reduce
I0502 11:39:01.185411 31177 net.cpp:395] conv5_1/incep/1_reduce/relu -> conv5_1/incep/1_reduce (in-place)
I0502 11:39:01.185415 31177 net.cpp:150] Setting up conv5_1/incep/1_reduce/relu
I0502 11:39:01.185416 31177 net.cpp:157] Top shape: 1 96 20 33 (63360)
I0502 11:39:01.185417 31177 net.cpp:165] Memory required for data: 750689304
I0502 11:39:01.185420 31177 layer_factory.hpp:77] Creating layer conv5_1/incep/1_0/conv
I0502 11:39:01.185423 31177 net.cpp:100] Creating Layer conv5_1/incep/1_0/conv
I0502 11:39:01.185425 31177 net.cpp:434] conv5_1/incep/1_0/conv <- conv5_1/incep/1_reduce
I0502 11:39:01.185428 31177 net.cpp:408] conv5_1/incep/1_0/conv -> conv5_1/incep/1_0
I0502 11:39:01.186209 31177 net.cpp:150] Setting up conv5_1/incep/1_0/conv
I0502 11:39:01.186215 31177 net.cpp:157] Top shape: 1 192 20 33 (126720)
I0502 11:39:01.186216 31177 net.cpp:165] Memory required for data: 751196184
I0502 11:39:01.186231 31177 layer_factory.hpp:77] Creating layer conv5_1/incep/1_0/relu
I0502 11:39:01.186235 31177 net.cpp:100] Creating Layer conv5_1/incep/1_0/relu
I0502 11:39:01.186237 31177 net.cpp:434] conv5_1/incep/1_0/relu <- conv5_1/incep/1_0
I0502 11:39:01.186240 31177 net.cpp:395] conv5_1/incep/1_0/relu -> conv5_1/incep/1_0 (in-place)
I0502 11:39:01.186244 31177 net.cpp:150] Setting up conv5_1/incep/1_0/relu
I0502 11:39:01.186246 31177 net.cpp:157] Top shape: 1 192 20 33 (126720)
I0502 11:39:01.186247 31177 net.cpp:165] Memory required for data: 751703064
I0502 11:39:01.186249 31177 layer_factory.hpp:77] Creating layer conv5_1/incep/2_reduce/conv
I0502 11:39:01.186254 31177 net.cpp:100] Creating Layer conv5_1/incep/2_reduce/conv
I0502 11:39:01.186255 31177 net.cpp:434] conv5_1/incep/2_reduce/conv <- conv4_4_conv4_4_0_split_2
I0502 11:39:01.186259 31177 net.cpp:408] conv5_1/incep/2_reduce/conv -> conv5_1/incep/2_reduce
I0502 11:39:01.186305 31177 net.cpp:150] Setting up conv5_1/incep/2_reduce/conv
I0502 11:39:01.186308 31177 net.cpp:157] Top shape: 1 32 20 33 (21120)
I0502 11:39:01.186309 31177 net.cpp:165] Memory required for data: 751787544
I0502 11:39:01.186312 31177 layer_factory.hpp:77] Creating layer conv5_1/incep/2_reduce/relu
I0502 11:39:01.186316 31177 net.cpp:100] Creating Layer conv5_1/incep/2_reduce/relu
I0502 11:39:01.186317 31177 net.cpp:434] conv5_1/incep/2_reduce/relu <- conv5_1/incep/2_reduce
I0502 11:39:01.186321 31177 net.cpp:395] conv5_1/incep/2_reduce/relu -> conv5_1/incep/2_reduce (in-place)
I0502 11:39:01.186322 31177 net.cpp:150] Setting up conv5_1/incep/2_reduce/relu
I0502 11:39:01.186324 31177 net.cpp:157] Top shape: 1 32 20 33 (21120)
I0502 11:39:01.186326 31177 net.cpp:165] Memory required for data: 751872024
I0502 11:39:01.186328 31177 layer_factory.hpp:77] Creating layer conv5_1/incep/2_0/conv
I0502 11:39:01.186331 31177 net.cpp:100] Creating Layer conv5_1/incep/2_0/conv
I0502 11:39:01.186333 31177 net.cpp:434] conv5_1/incep/2_0/conv <- conv5_1/incep/2_reduce
I0502 11:39:01.186336 31177 net.cpp:408] conv5_1/incep/2_0/conv -> conv5_1/incep/2_0
I0502 11:39:01.186429 31177 net.cpp:150] Setting up conv5_1/incep/2_0/conv
I0502 11:39:01.186432 31177 net.cpp:157] Top shape: 1 64 20 33 (42240)
I0502 11:39:01.186434 31177 net.cpp:165] Memory required for data: 752040984
I0502 11:39:01.186436 31177 layer_factory.hpp:77] Creating layer conv5_1/incep/2_0/relu
I0502 11:39:01.186439 31177 net.cpp:100] Creating Layer conv5_1/incep/2_0/relu
I0502 11:39:01.186440 31177 net.cpp:434] conv5_1/incep/2_0/relu <- conv5_1/incep/2_0
I0502 11:39:01.186442 31177 net.cpp:395] conv5_1/incep/2_0/relu -> conv5_1/incep/2_0 (in-place)
I0502 11:39:01.186445 31177 net.cpp:150] Setting up conv5_1/incep/2_0/relu
I0502 11:39:01.186447 31177 net.cpp:157] Top shape: 1 64 20 33 (42240)
I0502 11:39:01.186450 31177 net.cpp:165] Memory required for data: 752209944
I0502 11:39:01.186450 31177 layer_factory.hpp:77] Creating layer conv5_1/incep/2_1/conv
I0502 11:39:01.186455 31177 net.cpp:100] Creating Layer conv5_1/incep/2_1/conv
I0502 11:39:01.186456 31177 net.cpp:434] conv5_1/incep/2_1/conv <- conv5_1/incep/2_0
I0502 11:39:01.186460 31177 net.cpp:408] conv5_1/incep/2_1/conv -> conv5_1/incep/2_1
I0502 11:39:01.186635 31177 net.cpp:150] Setting up conv5_1/incep/2_1/conv
I0502 11:39:01.186637 31177 net.cpp:157] Top shape: 1 64 20 33 (42240)
I0502 11:39:01.186640 31177 net.cpp:165] Memory required for data: 752378904
I0502 11:39:01.186642 31177 layer_factory.hpp:77] Creating layer conv5_1/incep/2_1/relu
I0502 11:39:01.186858 31177 net.cpp:100] Creating Layer conv5_1/incep/2_1/relu
I0502 11:39:01.186866 31177 net.cpp:434] conv5_1/incep/2_1/relu <- conv5_1/incep/2_1
I0502 11:39:01.186872 31177 net.cpp:395] conv5_1/incep/2_1/relu -> conv5_1/incep/2_1 (in-place)
I0502 11:39:01.186877 31177 net.cpp:150] Setting up conv5_1/incep/2_1/relu
I0502 11:39:01.186882 31177 net.cpp:157] Top shape: 1 64 20 33 (42240)
I0502 11:39:01.186883 31177 net.cpp:165] Memory required for data: 752547864
I0502 11:39:01.186885 31177 layer_factory.hpp:77] Creating layer conv5_1/incep/pool
I0502 11:39:01.186890 31177 net.cpp:100] Creating Layer conv5_1/incep/pool
I0502 11:39:01.186892 31177 net.cpp:434] conv5_1/incep/pool <- conv4_4_conv4_4_0_split_3
I0502 11:39:01.186895 31177 net.cpp:408] conv5_1/incep/pool -> conv5_1/incep/pool
I0502 11:39:01.186902 31177 net.cpp:150] Setting up conv5_1/incep/pool
I0502 11:39:01.186903 31177 net.cpp:157] Top shape: 1 256 20 33 (168960)
I0502 11:39:01.186905 31177 net.cpp:165] Memory required for data: 753223704
I0502 11:39:01.186906 31177 layer_factory.hpp:77] Creating layer conv5_1/incep/poolproj/conv
I0502 11:39:01.186911 31177 net.cpp:100] Creating Layer conv5_1/incep/poolproj/conv
I0502 11:39:01.186913 31177 net.cpp:434] conv5_1/incep/poolproj/conv <- conv5_1/incep/pool
I0502 11:39:01.186918 31177 net.cpp:408] conv5_1/incep/poolproj/conv -> conv5_1/incep/poolproj
I0502 11:39:01.187078 31177 net.cpp:150] Setting up conv5_1/incep/poolproj/conv
I0502 11:39:01.187081 31177 net.cpp:157] Top shape: 1 128 20 33 (84480)
I0502 11:39:01.187083 31177 net.cpp:165] Memory required for data: 753561624
I0502 11:39:01.187086 31177 layer_factory.hpp:77] Creating layer conv5_1/incep/poolproj/relu
I0502 11:39:01.187089 31177 net.cpp:100] Creating Layer conv5_1/incep/poolproj/relu
I0502 11:39:01.187091 31177 net.cpp:434] conv5_1/incep/poolproj/relu <- conv5_1/incep/poolproj
I0502 11:39:01.187094 31177 net.cpp:395] conv5_1/incep/poolproj/relu -> conv5_1/incep/poolproj (in-place)
I0502 11:39:01.187098 31177 net.cpp:150] Setting up conv5_1/incep/poolproj/relu
I0502 11:39:01.187099 31177 net.cpp:157] Top shape: 1 128 20 33 (84480)
I0502 11:39:01.187101 31177 net.cpp:165] Memory required for data: 753899544
I0502 11:39:01.187103 31177 layer_factory.hpp:77] Creating layer conv5_1/incep
I0502 11:39:01.187105 31177 net.cpp:100] Creating Layer conv5_1/incep
I0502 11:39:01.187108 31177 net.cpp:434] conv5_1/incep <- conv5_1/incep/0
I0502 11:39:01.187110 31177 net.cpp:434] conv5_1/incep <- conv5_1/incep/1_0
I0502 11:39:01.187113 31177 net.cpp:434] conv5_1/incep <- conv5_1/incep/2_1
I0502 11:39:01.187114 31177 net.cpp:434] conv5_1/incep <- conv5_1/incep/poolproj
I0502 11:39:01.187116 31177 net.cpp:408] conv5_1/incep -> conv5_1/incep
I0502 11:39:01.187120 31177 net.cpp:150] Setting up conv5_1/incep
I0502 11:39:01.187122 31177 net.cpp:157] Top shape: 1 448 20 33 (295680)
I0502 11:39:01.187124 31177 net.cpp:165] Memory required for data: 755082264
I0502 11:39:01.187126 31177 layer_factory.hpp:77] Creating layer conv5_1/out/conv
I0502 11:39:01.187130 31177 net.cpp:100] Creating Layer conv5_1/out/conv
I0502 11:39:01.187132 31177 net.cpp:434] conv5_1/out/conv <- conv5_1/incep
I0502 11:39:01.187135 31177 net.cpp:408] conv5_1/out/conv -> conv5_1/out
I0502 11:39:01.187924 31177 net.cpp:150] Setting up conv5_1/out/conv
I0502 11:39:01.187928 31177 net.cpp:157] Top shape: 1 384 20 33 (253440)
I0502 11:39:01.187929 31177 net.cpp:165] Memory required for data: 756096024
I0502 11:39:01.187932 31177 layer_factory.hpp:77] Creating layer conv5_1/proj
I0502 11:39:01.187937 31177 net.cpp:100] Creating Layer conv5_1/proj
I0502 11:39:01.187938 31177 net.cpp:434] conv5_1/proj <- conv4_4_conv4_4_0_split_4
I0502 11:39:01.187942 31177 net.cpp:408] conv5_1/proj -> conv5_1/proj
I0502 11:39:01.188397 31177 net.cpp:150] Setting up conv5_1/proj
I0502 11:39:01.188400 31177 net.cpp:157] Top shape: 1 384 20 33 (253440)
I0502 11:39:01.188402 31177 net.cpp:165] Memory required for data: 757109784
I0502 11:39:01.188405 31177 layer_factory.hpp:77] Creating layer conv5_1
I0502 11:39:01.188410 31177 net.cpp:100] Creating Layer conv5_1
I0502 11:39:01.188411 31177 net.cpp:434] conv5_1 <- conv5_1/out
I0502 11:39:01.188413 31177 net.cpp:434] conv5_1 <- conv5_1/proj
I0502 11:39:01.188417 31177 net.cpp:408] conv5_1 -> conv5_1
I0502 11:39:01.188421 31177 net.cpp:150] Setting up conv5_1
I0502 11:39:01.188423 31177 net.cpp:157] Top shape: 1 384 20 33 (253440)
I0502 11:39:01.188426 31177 net.cpp:165] Memory required for data: 758123544
I0502 11:39:01.188426 31177 layer_factory.hpp:77] Creating layer conv5_1_conv5_1_0_split
I0502 11:39:01.188431 31177 net.cpp:100] Creating Layer conv5_1_conv5_1_0_split
I0502 11:39:01.188432 31177 net.cpp:434] conv5_1_conv5_1_0_split <- conv5_1
I0502 11:39:01.188434 31177 net.cpp:408] conv5_1_conv5_1_0_split -> conv5_1_conv5_1_0_split_0
I0502 11:39:01.188438 31177 net.cpp:408] conv5_1_conv5_1_0_split -> conv5_1_conv5_1_0_split_1
I0502 11:39:01.188441 31177 net.cpp:408] conv5_1_conv5_1_0_split -> conv5_1_conv5_1_0_split_2
I0502 11:39:01.188444 31177 net.cpp:408] conv5_1_conv5_1_0_split -> conv5_1_conv5_1_0_split_3
I0502 11:39:01.188448 31177 net.cpp:150] Setting up conv5_1_conv5_1_0_split
I0502 11:39:01.188450 31177 net.cpp:157] Top shape: 1 384 20 33 (253440)
I0502 11:39:01.188453 31177 net.cpp:157] Top shape: 1 384 20 33 (253440)
I0502 11:39:01.188455 31177 net.cpp:157] Top shape: 1 384 20 33 (253440)
I0502 11:39:01.188457 31177 net.cpp:157] Top shape: 1 384 20 33 (253440)
I0502 11:39:01.188459 31177 net.cpp:165] Memory required for data: 762178584
I0502 11:39:01.188460 31177 layer_factory.hpp:77] Creating layer conv5_2/incep/0/conv
I0502 11:39:01.188463 31177 net.cpp:100] Creating Layer conv5_2/incep/0/conv
I0502 11:39:01.188465 31177 net.cpp:434] conv5_2/incep/0/conv <- conv5_1_conv5_1_0_split_0
I0502 11:39:01.188468 31177 net.cpp:408] conv5_2/incep/0/conv -> conv5_2/incep/0
I0502 11:39:01.188591 31177 net.cpp:150] Setting up conv5_2/incep/0/conv
I0502 11:39:01.188593 31177 net.cpp:157] Top shape: 1 64 20 33 (42240)
I0502 11:39:01.188596 31177 net.cpp:165] Memory required for data: 762347544
I0502 11:39:01.188597 31177 layer_factory.hpp:77] Creating layer conv5_2/incep/0/relu
I0502 11:39:01.188601 31177 net.cpp:100] Creating Layer conv5_2/incep/0/relu
I0502 11:39:01.188602 31177 net.cpp:434] conv5_2/incep/0/relu <- conv5_2/incep/0
I0502 11:39:01.188606 31177 net.cpp:395] conv5_2/incep/0/relu -> conv5_2/incep/0 (in-place)
I0502 11:39:01.188608 31177 net.cpp:150] Setting up conv5_2/incep/0/relu
I0502 11:39:01.188611 31177 net.cpp:157] Top shape: 1 64 20 33 (42240)
I0502 11:39:01.188612 31177 net.cpp:165] Memory required for data: 762516504
I0502 11:39:01.188613 31177 layer_factory.hpp:77] Creating layer conv5_2/incep/1_reduce/conv
I0502 11:39:01.188616 31177 net.cpp:100] Creating Layer conv5_2/incep/1_reduce/conv
I0502 11:39:01.188619 31177 net.cpp:434] conv5_2/incep/1_reduce/conv <- conv5_1_conv5_1_0_split_1
I0502 11:39:01.188622 31177 net.cpp:408] conv5_2/incep/1_reduce/conv -> conv5_2/incep/1_reduce
I0502 11:39:01.188797 31177 net.cpp:150] Setting up conv5_2/incep/1_reduce/conv
I0502 11:39:01.188801 31177 net.cpp:157] Top shape: 1 96 20 33 (63360)
I0502 11:39:01.188802 31177 net.cpp:165] Memory required for data: 762769944
I0502 11:39:01.188805 31177 layer_factory.hpp:77] Creating layer conv5_2/incep/1_reduce/relu
I0502 11:39:01.188807 31177 net.cpp:100] Creating Layer conv5_2/incep/1_reduce/relu
I0502 11:39:01.188809 31177 net.cpp:434] conv5_2/incep/1_reduce/relu <- conv5_2/incep/1_reduce
I0502 11:39:01.188812 31177 net.cpp:395] conv5_2/incep/1_reduce/relu -> conv5_2/incep/1_reduce (in-place)
I0502 11:39:01.188815 31177 net.cpp:150] Setting up conv5_2/incep/1_reduce/relu
I0502 11:39:01.188817 31177 net.cpp:157] Top shape: 1 96 20 33 (63360)
I0502 11:39:01.188819 31177 net.cpp:165] Memory required for data: 763023384
I0502 11:39:01.188820 31177 layer_factory.hpp:77] Creating layer conv5_2/incep/1_0/conv
I0502 11:39:01.188823 31177 net.cpp:100] Creating Layer conv5_2/incep/1_0/conv
I0502 11:39:01.218593 31177 net.cpp:434] conv5_2/incep/1_0/conv <- conv5_2/incep/1_reduce
I0502 11:39:01.218621 31177 net.cpp:408] conv5_2/incep/1_0/conv -> conv5_2/incep/1_0
I0502 11:39:01.219441 31177 net.cpp:150] Setting up conv5_2/incep/1_0/conv
I0502 11:39:01.219460 31177 net.cpp:157] Top shape: 1 192 20 33 (126720)
I0502 11:39:01.219462 31177 net.cpp:165] Memory required for data: 763530264
I0502 11:39:01.219470 31177 layer_factory.hpp:77] Creating layer conv5_2/incep/1_0/relu
I0502 11:39:01.219480 31177 net.cpp:100] Creating Layer conv5_2/incep/1_0/relu
I0502 11:39:01.219485 31177 net.cpp:434] conv5_2/incep/1_0/relu <- conv5_2/incep/1_0
I0502 11:39:01.219491 31177 net.cpp:395] conv5_2/incep/1_0/relu -> conv5_2/incep/1_0 (in-place)
I0502 11:39:01.219497 31177 net.cpp:150] Setting up conv5_2/incep/1_0/relu
I0502 11:39:01.219499 31177 net.cpp:157] Top shape: 1 192 20 33 (126720)
I0502 11:39:01.219501 31177 net.cpp:165] Memory required for data: 764037144
I0502 11:39:01.219503 31177 layer_factory.hpp:77] Creating layer conv5_2/incep/2_reduce/conv
I0502 11:39:01.219511 31177 net.cpp:100] Creating Layer conv5_2/incep/2_reduce/conv
I0502 11:39:01.219513 31177 net.cpp:434] conv5_2/incep/2_reduce/conv <- conv5_1_conv5_1_0_split_2
I0502 11:39:01.219516 31177 net.cpp:408] conv5_2/incep/2_reduce/conv -> conv5_2/incep/2_reduce
I0502 11:39:01.219594 31177 net.cpp:150] Setting up conv5_2/incep/2_reduce/conv
I0502 11:39:01.219597 31177 net.cpp:157] Top shape: 1 32 20 33 (21120)
I0502 11:39:01.219599 31177 net.cpp:165] Memory required for data: 764121624
I0502 11:39:01.219602 31177 layer_factory.hpp:77] Creating layer conv5_2/incep/2_reduce/relu
I0502 11:39:01.219605 31177 net.cpp:100] Creating Layer conv5_2/incep/2_reduce/relu
I0502 11:39:01.219607 31177 net.cpp:434] conv5_2/incep/2_reduce/relu <- conv5_2/incep/2_reduce
I0502 11:39:01.219609 31177 net.cpp:395] conv5_2/incep/2_reduce/relu -> conv5_2/incep/2_reduce (in-place)
I0502 11:39:01.219612 31177 net.cpp:150] Setting up conv5_2/incep/2_reduce/relu
I0502 11:39:01.219614 31177 net.cpp:157] Top shape: 1 32 20 33 (21120)
I0502 11:39:01.219616 31177 net.cpp:165] Memory required for data: 764206104
I0502 11:39:01.219617 31177 layer_factory.hpp:77] Creating layer conv5_2/incep/2_0/conv
I0502 11:39:01.219624 31177 net.cpp:100] Creating Layer conv5_2/incep/2_0/conv
I0502 11:39:01.219626 31177 net.cpp:434] conv5_2/incep/2_0/conv <- conv5_2/incep/2_reduce
I0502 11:39:01.219630 31177 net.cpp:408] conv5_2/incep/2_0/conv -> conv5_2/incep/2_0
I0502 11:39:01.219732 31177 net.cpp:150] Setting up conv5_2/incep/2_0/conv
I0502 11:39:01.219736 31177 net.cpp:157] Top shape: 1 64 20 33 (42240)
I0502 11:39:01.219738 31177 net.cpp:165] Memory required for data: 764375064
I0502 11:39:01.219743 31177 layer_factory.hpp:77] Creating layer conv5_2/incep/2_0/relu
I0502 11:39:01.219745 31177 net.cpp:100] Creating Layer conv5_2/incep/2_0/relu
I0502 11:39:01.219748 31177 net.cpp:434] conv5_2/incep/2_0/relu <- conv5_2/incep/2_0
I0502 11:39:01.219750 31177 net.cpp:395] conv5_2/incep/2_0/relu -> conv5_2/incep/2_0 (in-place)
I0502 11:39:01.219753 31177 net.cpp:150] Setting up conv5_2/incep/2_0/relu
I0502 11:39:01.219755 31177 net.cpp:157] Top shape: 1 64 20 33 (42240)
I0502 11:39:01.219758 31177 net.cpp:165] Memory required for data: 764544024
I0502 11:39:01.219759 31177 layer_factory.hpp:77] Creating layer conv5_2/incep/2_1/conv
I0502 11:39:01.219763 31177 net.cpp:100] Creating Layer conv5_2/incep/2_1/conv
I0502 11:39:01.219764 31177 net.cpp:434] conv5_2/incep/2_1/conv <- conv5_2/incep/2_0
I0502 11:39:01.219768 31177 net.cpp:408] conv5_2/incep/2_1/conv -> conv5_2/incep/2_1
I0502 11:39:01.219946 31177 net.cpp:150] Setting up conv5_2/incep/2_1/conv
I0502 11:39:01.219951 31177 net.cpp:157] Top shape: 1 64 20 33 (42240)
I0502 11:39:01.219954 31177 net.cpp:165] Memory required for data: 764712984
I0502 11:39:01.219956 31177 layer_factory.hpp:77] Creating layer conv5_2/incep/2_1/relu
I0502 11:39:01.219959 31177 net.cpp:100] Creating Layer conv5_2/incep/2_1/relu
I0502 11:39:01.219961 31177 net.cpp:434] conv5_2/incep/2_1/relu <- conv5_2/incep/2_1
I0502 11:39:01.219964 31177 net.cpp:395] conv5_2/incep/2_1/relu -> conv5_2/incep/2_1 (in-place)
I0502 11:39:01.219966 31177 net.cpp:150] Setting up conv5_2/incep/2_1/relu
I0502 11:39:01.219969 31177 net.cpp:157] Top shape: 1 64 20 33 (42240)
I0502 11:39:01.219970 31177 net.cpp:165] Memory required for data: 764881944
I0502 11:39:01.219972 31177 layer_factory.hpp:77] Creating layer conv5_2/incep
I0502 11:39:01.219975 31177 net.cpp:100] Creating Layer conv5_2/incep
I0502 11:39:01.219977 31177 net.cpp:434] conv5_2/incep <- conv5_2/incep/0
I0502 11:39:01.219980 31177 net.cpp:434] conv5_2/incep <- conv5_2/incep/1_0
I0502 11:39:01.219982 31177 net.cpp:434] conv5_2/incep <- conv5_2/incep/2_1
I0502 11:39:01.219986 31177 net.cpp:408] conv5_2/incep -> conv5_2/incep
I0502 11:39:01.219990 31177 net.cpp:150] Setting up conv5_2/incep
I0502 11:39:01.219993 31177 net.cpp:157] Top shape: 1 320 20 33 (211200)
I0502 11:39:01.219995 31177 net.cpp:165] Memory required for data: 765726744
I0502 11:39:01.219997 31177 layer_factory.hpp:77] Creating layer conv5_2/out/conv
I0502 11:39:01.220001 31177 net.cpp:100] Creating Layer conv5_2/out/conv
I0502 11:39:01.220005 31177 net.cpp:434] conv5_2/out/conv <- conv5_2/incep
I0502 11:39:01.220007 31177 net.cpp:408] conv5_2/out/conv -> conv5_2/out
I0502 11:39:01.220607 31177 net.cpp:150] Setting up conv5_2/out/conv
I0502 11:39:01.220619 31177 net.cpp:157] Top shape: 1 384 20 33 (253440)
I0502 11:39:01.220621 31177 net.cpp:165] Memory required for data: 766740504
I0502 11:39:01.220626 31177 layer_factory.hpp:77] Creating layer conv5_2
I0502 11:39:01.220635 31177 net.cpp:100] Creating Layer conv5_2
I0502 11:39:01.220639 31177 net.cpp:434] conv5_2 <- conv5_2/out
I0502 11:39:01.220643 31177 net.cpp:434] conv5_2 <- conv5_1_conv5_1_0_split_3
I0502 11:39:01.220649 31177 net.cpp:408] conv5_2 -> conv5_2
I0502 11:39:01.220656 31177 net.cpp:150] Setting up conv5_2
I0502 11:39:01.220659 31177 net.cpp:157] Top shape: 1 384 20 33 (253440)
I0502 11:39:01.220660 31177 net.cpp:165] Memory required for data: 767754264
I0502 11:39:01.220662 31177 layer_factory.hpp:77] Creating layer conv5_2_conv5_2_0_split
I0502 11:39:01.220667 31177 net.cpp:100] Creating Layer conv5_2_conv5_2_0_split
I0502 11:39:01.220669 31177 net.cpp:434] conv5_2_conv5_2_0_split <- conv5_2
I0502 11:39:01.220672 31177 net.cpp:408] conv5_2_conv5_2_0_split -> conv5_2_conv5_2_0_split_0
I0502 11:39:01.220675 31177 net.cpp:408] conv5_2_conv5_2_0_split -> conv5_2_conv5_2_0_split_1
I0502 11:39:01.220679 31177 net.cpp:408] conv5_2_conv5_2_0_split -> conv5_2_conv5_2_0_split_2
I0502 11:39:01.220682 31177 net.cpp:408] conv5_2_conv5_2_0_split -> conv5_2_conv5_2_0_split_3
I0502 11:39:01.220685 31177 net.cpp:150] Setting up conv5_2_conv5_2_0_split
I0502 11:39:01.220688 31177 net.cpp:157] Top shape: 1 384 20 33 (253440)
I0502 11:39:01.220691 31177 net.cpp:157] Top shape: 1 384 20 33 (253440)
I0502 11:39:01.220693 31177 net.cpp:157] Top shape: 1 384 20 33 (253440)
I0502 11:39:01.220695 31177 net.cpp:157] Top shape: 1 384 20 33 (253440)
I0502 11:39:01.220696 31177 net.cpp:165] Memory required for data: 771809304
I0502 11:39:01.220698 31177 layer_factory.hpp:77] Creating layer conv5_3/incep/0/conv
I0502 11:39:01.220703 31177 net.cpp:100] Creating Layer conv5_3/incep/0/conv
I0502 11:39:01.220706 31177 net.cpp:434] conv5_3/incep/0/conv <- conv5_2_conv5_2_0_split_0
I0502 11:39:01.220708 31177 net.cpp:408] conv5_3/incep/0/conv -> conv5_3/incep/0
I0502 11:39:01.220834 31177 net.cpp:150] Setting up conv5_3/incep/0/conv
I0502 11:39:01.220836 31177 net.cpp:157] Top shape: 1 64 20 33 (42240)
I0502 11:39:01.220839 31177 net.cpp:165] Memory required for data: 771978264
I0502 11:39:01.220841 31177 layer_factory.hpp:77] Creating layer conv5_3/incep/0/relu
I0502 11:39:01.220845 31177 net.cpp:100] Creating Layer conv5_3/incep/0/relu
I0502 11:39:01.220847 31177 net.cpp:434] conv5_3/incep/0/relu <- conv5_3/incep/0
I0502 11:39:01.220849 31177 net.cpp:395] conv5_3/incep/0/relu -> conv5_3/incep/0 (in-place)
I0502 11:39:01.246752 31177 net.cpp:150] Setting up conv5_3/incep/0/relu
I0502 11:39:01.246768 31177 net.cpp:157] Top shape: 1 64 20 33 (42240)
I0502 11:39:01.246771 31177 net.cpp:165] Memory required for data: 772147224
I0502 11:39:01.246774 31177 layer_factory.hpp:77] Creating layer conv5_3/incep/1_reduce/conv
I0502 11:39:01.246786 31177 net.cpp:100] Creating Layer conv5_3/incep/1_reduce/conv
I0502 11:39:01.246789 31177 net.cpp:434] conv5_3/incep/1_reduce/conv <- conv5_2_conv5_2_0_split_1
I0502 11:39:01.246793 31177 net.cpp:408] conv5_3/incep/1_reduce/conv -> conv5_3/incep/1_reduce
I0502 11:39:01.246987 31177 net.cpp:150] Setting up conv5_3/incep/1_reduce/conv
I0502 11:39:01.246991 31177 net.cpp:157] Top shape: 1 96 20 33 (63360)
I0502 11:39:01.246994 31177 net.cpp:165] Memory required for data: 772400664
I0502 11:39:01.246999 31177 layer_factory.hpp:77] Creating layer conv5_3/incep/1_reduce/relu
I0502 11:39:01.247002 31177 net.cpp:100] Creating Layer conv5_3/incep/1_reduce/relu
I0502 11:39:01.247005 31177 net.cpp:434] conv5_3/incep/1_reduce/relu <- conv5_3/incep/1_reduce
I0502 11:39:01.247007 31177 net.cpp:395] conv5_3/incep/1_reduce/relu -> conv5_3/incep/1_reduce (in-place)
I0502 11:39:01.247010 31177 net.cpp:150] Setting up conv5_3/incep/1_reduce/relu
I0502 11:39:01.247014 31177 net.cpp:157] Top shape: 1 96 20 33 (63360)
I0502 11:39:01.247014 31177 net.cpp:165] Memory required for data: 772654104
I0502 11:39:01.247016 31177 layer_factory.hpp:77] Creating layer conv5_3/incep/1_0/conv
I0502 11:39:01.247020 31177 net.cpp:100] Creating Layer conv5_3/incep/1_0/conv
I0502 11:39:01.247022 31177 net.cpp:434] conv5_3/incep/1_0/conv <- conv5_3/incep/1_reduce
I0502 11:39:01.247025 31177 net.cpp:408] conv5_3/incep/1_0/conv -> conv5_3/incep/1_0
I0502 11:39:01.247802 31177 net.cpp:150] Setting up conv5_3/incep/1_0/conv
I0502 11:39:01.247807 31177 net.cpp:157] Top shape: 1 192 20 33 (126720)
I0502 11:39:01.247809 31177 net.cpp:165] Memory required for data: 773160984
I0502 11:39:01.247812 31177 layer_factory.hpp:77] Creating layer conv5_3/incep/1_0/relu
I0502 11:39:01.247815 31177 net.cpp:100] Creating Layer conv5_3/incep/1_0/relu
I0502 11:39:01.247817 31177 net.cpp:434] conv5_3/incep/1_0/relu <- conv5_3/incep/1_0
I0502 11:39:01.247820 31177 net.cpp:395] conv5_3/incep/1_0/relu -> conv5_3/incep/1_0 (in-place)
I0502 11:39:01.247823 31177 net.cpp:150] Setting up conv5_3/incep/1_0/relu
I0502 11:39:01.247825 31177 net.cpp:157] Top shape: 1 192 20 33 (126720)
I0502 11:39:01.247826 31177 net.cpp:165] Memory required for data: 773667864
I0502 11:39:01.247828 31177 layer_factory.hpp:77] Creating layer conv5_3/incep/2_reduce/conv
I0502 11:39:01.247833 31177 net.cpp:100] Creating Layer conv5_3/incep/2_reduce/conv
I0502 11:39:01.247834 31177 net.cpp:434] conv5_3/incep/2_reduce/conv <- conv5_2_conv5_2_0_split_2
I0502 11:39:01.247838 31177 net.cpp:408] conv5_3/incep/2_reduce/conv -> conv5_3/incep/2_reduce
I0502 11:39:01.247903 31177 net.cpp:150] Setting up conv5_3/incep/2_reduce/conv
I0502 11:39:01.247906 31177 net.cpp:157] Top shape: 1 32 20 33 (21120)
I0502 11:39:01.247908 31177 net.cpp:165] Memory required for data: 773752344
I0502 11:39:01.247910 31177 layer_factory.hpp:77] Creating layer conv5_3/incep/2_reduce/relu
I0502 11:39:01.247913 31177 net.cpp:100] Creating Layer conv5_3/incep/2_reduce/relu
I0502 11:39:01.247915 31177 net.cpp:434] conv5_3/incep/2_reduce/relu <- conv5_3/incep/2_reduce
I0502 11:39:01.247918 31177 net.cpp:395] conv5_3/incep/2_reduce/relu -> conv5_3/incep/2_reduce (in-place)
I0502 11:39:01.247921 31177 net.cpp:150] Setting up conv5_3/incep/2_reduce/relu
I0502 11:39:01.247923 31177 net.cpp:157] Top shape: 1 32 20 33 (21120)
I0502 11:39:01.247925 31177 net.cpp:165] Memory required for data: 773836824
I0502 11:39:01.247927 31177 layer_factory.hpp:77] Creating layer conv5_3/incep/2_0/conv
I0502 11:39:01.247932 31177 net.cpp:100] Creating Layer conv5_3/incep/2_0/conv
I0502 11:39:01.247936 31177 net.cpp:434] conv5_3/incep/2_0/conv <- conv5_3/incep/2_reduce
I0502 11:39:01.247941 31177 net.cpp:408] conv5_3/incep/2_0/conv -> conv5_3/incep/2_0
I0502 11:39:01.248050 31177 net.cpp:150] Setting up conv5_3/incep/2_0/conv
I0502 11:39:01.248055 31177 net.cpp:157] Top shape: 1 64 20 33 (42240)
I0502 11:39:01.248056 31177 net.cpp:165] Memory required for data: 774005784
I0502 11:39:01.248060 31177 layer_factory.hpp:77] Creating layer conv5_3/incep/2_0/relu
I0502 11:39:01.248062 31177 net.cpp:100] Creating Layer conv5_3/incep/2_0/relu
I0502 11:39:01.248065 31177 net.cpp:434] conv5_3/incep/2_0/relu <- conv5_3/incep/2_0
I0502 11:39:01.248069 31177 net.cpp:395] conv5_3/incep/2_0/relu -> conv5_3/incep/2_0 (in-place)
I0502 11:39:01.248071 31177 net.cpp:150] Setting up conv5_3/incep/2_0/relu
I0502 11:39:01.248075 31177 net.cpp:157] Top shape: 1 64 20 33 (42240)
I0502 11:39:01.248076 31177 net.cpp:165] Memory required for data: 774174744
I0502 11:39:01.248080 31177 layer_factory.hpp:77] Creating layer conv5_3/incep/2_1/conv
I0502 11:39:01.248083 31177 net.cpp:100] Creating Layer conv5_3/incep/2_1/conv
I0502 11:39:01.248086 31177 net.cpp:434] conv5_3/incep/2_1/conv <- conv5_3/incep/2_0
I0502 11:39:01.248090 31177 net.cpp:408] conv5_3/incep/2_1/conv -> conv5_3/incep/2_1
I0502 11:39:01.248299 31177 net.cpp:150] Setting up conv5_3/incep/2_1/conv
I0502 11:39:01.248306 31177 net.cpp:157] Top shape: 1 64 20 33 (42240)
I0502 11:39:01.248306 31177 net.cpp:165] Memory required for data: 774343704
I0502 11:39:01.248311 31177 layer_factory.hpp:77] Creating layer conv5_3/incep/2_1/relu
I0502 11:39:01.248312 31177 net.cpp:100] Creating Layer conv5_3/incep/2_1/relu
I0502 11:39:01.248316 31177 net.cpp:434] conv5_3/incep/2_1/relu <- conv5_3/incep/2_1
I0502 11:39:01.248318 31177 net.cpp:395] conv5_3/incep/2_1/relu -> conv5_3/incep/2_1 (in-place)
I0502 11:39:01.248322 31177 net.cpp:150] Setting up conv5_3/incep/2_1/relu
I0502 11:39:01.248323 31177 net.cpp:157] Top shape: 1 64 20 33 (42240)
I0502 11:39:01.248325 31177 net.cpp:165] Memory required for data: 774512664
I0502 11:39:01.248327 31177 layer_factory.hpp:77] Creating layer conv5_3/incep
I0502 11:39:01.248330 31177 net.cpp:100] Creating Layer conv5_3/incep
I0502 11:39:01.248332 31177 net.cpp:434] conv5_3/incep <- conv5_3/incep/0
I0502 11:39:01.248334 31177 net.cpp:434] conv5_3/incep <- conv5_3/incep/1_0
I0502 11:39:01.248337 31177 net.cpp:434] conv5_3/incep <- conv5_3/incep/2_1
I0502 11:39:01.248338 31177 net.cpp:408] conv5_3/incep -> conv5_3/incep
I0502 11:39:01.248342 31177 net.cpp:150] Setting up conv5_3/incep
I0502 11:39:01.248345 31177 net.cpp:157] Top shape: 1 320 20 33 (211200)
I0502 11:39:01.248347 31177 net.cpp:165] Memory required for data: 775357464
I0502 11:39:01.248348 31177 layer_factory.hpp:77] Creating layer conv5_3/out/conv
I0502 11:39:01.248353 31177 net.cpp:100] Creating Layer conv5_3/out/conv
I0502 11:39:01.248354 31177 net.cpp:434] conv5_3/out/conv <- conv5_3/incep
I0502 11:39:01.248358 31177 net.cpp:408] conv5_3/out/conv -> conv5_3/out
I0502 11:39:01.248935 31177 net.cpp:150] Setting up conv5_3/out/conv
I0502 11:39:01.248940 31177 net.cpp:157] Top shape: 1 384 20 33 (253440)
I0502 11:39:01.248942 31177 net.cpp:165] Memory required for data: 776371224
I0502 11:39:01.248945 31177 layer_factory.hpp:77] Creating layer conv5_3
I0502 11:39:01.248950 31177 net.cpp:100] Creating Layer conv5_3
I0502 11:39:01.248951 31177 net.cpp:434] conv5_3 <- conv5_3/out
I0502 11:39:01.248955 31177 net.cpp:434] conv5_3 <- conv5_2_conv5_2_0_split_3
I0502 11:39:01.248956 31177 net.cpp:408] conv5_3 -> conv5_3
I0502 11:39:01.248961 31177 net.cpp:150] Setting up conv5_3
I0502 11:39:01.248963 31177 net.cpp:157] Top shape: 1 384 20 33 (253440)
I0502 11:39:01.248965 31177 net.cpp:165] Memory required for data: 777384984
I0502 11:39:01.248967 31177 layer_factory.hpp:77] Creating layer conv5_3_conv5_3_0_split
I0502 11:39:01.248971 31177 net.cpp:100] Creating Layer conv5_3_conv5_3_0_split
I0502 11:39:01.248973 31177 net.cpp:434] conv5_3_conv5_3_0_split <- conv5_3
I0502 11:39:01.248975 31177 net.cpp:408] conv5_3_conv5_3_0_split -> conv5_3_conv5_3_0_split_0
I0502 11:39:01.276953 31177 net.cpp:408] conv5_3_conv5_3_0_split -> conv5_3_conv5_3_0_split_1
I0502 11:39:01.276970 31177 net.cpp:408] conv5_3_conv5_3_0_split -> conv5_3_conv5_3_0_split_2
I0502 11:39:01.276973 31177 net.cpp:408] conv5_3_conv5_3_0_split -> conv5_3_conv5_3_0_split_3
I0502 11:39:01.276980 31177 net.cpp:150] Setting up conv5_3_conv5_3_0_split
I0502 11:39:01.276985 31177 net.cpp:157] Top shape: 1 384 20 33 (253440)
I0502 11:39:01.276988 31177 net.cpp:157] Top shape: 1 384 20 33 (253440)
I0502 11:39:01.276990 31177 net.cpp:157] Top shape: 1 384 20 33 (253440)
I0502 11:39:01.276993 31177 net.cpp:157] Top shape: 1 384 20 33 (253440)
I0502 11:39:01.276994 31177 net.cpp:165] Memory required for data: 781440024
I0502 11:39:01.276996 31177 layer_factory.hpp:77] Creating layer conv5_4/incep/0/conv
I0502 11:39:01.277004 31177 net.cpp:100] Creating Layer conv5_4/incep/0/conv
I0502 11:39:01.277006 31177 net.cpp:434] conv5_4/incep/0/conv <- conv5_3_conv5_3_0_split_0
I0502 11:39:01.277010 31177 net.cpp:408] conv5_4/incep/0/conv -> conv5_4/incep/0
I0502 11:39:01.277164 31177 net.cpp:150] Setting up conv5_4/incep/0/conv
I0502 11:39:01.277169 31177 net.cpp:157] Top shape: 1 64 20 33 (42240)
I0502 11:39:01.277170 31177 net.cpp:165] Memory required for data: 781608984
I0502 11:39:01.277175 31177 layer_factory.hpp:77] Creating layer conv5_4/incep/0/relu
I0502 11:39:01.277180 31177 net.cpp:100] Creating Layer conv5_4/incep/0/relu
I0502 11:39:01.277182 31177 net.cpp:434] conv5_4/incep/0/relu <- conv5_4/incep/0
I0502 11:39:01.277184 31177 net.cpp:395] conv5_4/incep/0/relu -> conv5_4/incep/0 (in-place)
I0502 11:39:01.277189 31177 net.cpp:150] Setting up conv5_4/incep/0/relu
I0502 11:39:01.277191 31177 net.cpp:157] Top shape: 1 64 20 33 (42240)
I0502 11:39:01.277194 31177 net.cpp:165] Memory required for data: 781777944
I0502 11:39:01.277194 31177 layer_factory.hpp:77] Creating layer conv5_4/incep/1_reduce/conv
I0502 11:39:01.277199 31177 net.cpp:100] Creating Layer conv5_4/incep/1_reduce/conv
I0502 11:39:01.277200 31177 net.cpp:434] conv5_4/incep/1_reduce/conv <- conv5_3_conv5_3_0_split_1
I0502 11:39:01.277204 31177 net.cpp:408] conv5_4/incep/1_reduce/conv -> conv5_4/incep/1_reduce
I0502 11:39:01.277381 31177 net.cpp:150] Setting up conv5_4/incep/1_reduce/conv
I0502 11:39:01.277384 31177 net.cpp:157] Top shape: 1 96 20 33 (63360)
I0502 11:39:01.277385 31177 net.cpp:165] Memory required for data: 782031384
I0502 11:39:01.277389 31177 layer_factory.hpp:77] Creating layer conv5_4/incep/1_reduce/relu
I0502 11:39:01.277391 31177 net.cpp:100] Creating Layer conv5_4/incep/1_reduce/relu
I0502 11:39:01.277393 31177 net.cpp:434] conv5_4/incep/1_reduce/relu <- conv5_4/incep/1_reduce
I0502 11:39:01.277395 31177 net.cpp:395] conv5_4/incep/1_reduce/relu -> conv5_4/incep/1_reduce (in-place)
I0502 11:39:01.277398 31177 net.cpp:150] Setting up conv5_4/incep/1_reduce/relu
I0502 11:39:01.277400 31177 net.cpp:157] Top shape: 1 96 20 33 (63360)
I0502 11:39:01.277402 31177 net.cpp:165] Memory required for data: 782284824
I0502 11:39:01.277403 31177 layer_factory.hpp:77] Creating layer conv5_4/incep/1_0/conv
I0502 11:39:01.277407 31177 net.cpp:100] Creating Layer conv5_4/incep/1_0/conv
I0502 11:39:01.277410 31177 net.cpp:434] conv5_4/incep/1_0/conv <- conv5_4/incep/1_reduce
I0502 11:39:01.277412 31177 net.cpp:408] conv5_4/incep/1_0/conv -> conv5_4/incep/1_0
I0502 11:39:01.278199 31177 net.cpp:150] Setting up conv5_4/incep/1_0/conv
I0502 11:39:01.278206 31177 net.cpp:157] Top shape: 1 192 20 33 (126720)
I0502 11:39:01.278208 31177 net.cpp:165] Memory required for data: 782791704
I0502 11:39:01.278213 31177 layer_factory.hpp:77] Creating layer conv5_4/incep/1_0/relu
I0502 11:39:01.278219 31177 net.cpp:100] Creating Layer conv5_4/incep/1_0/relu
I0502 11:39:01.278223 31177 net.cpp:434] conv5_4/incep/1_0/relu <- conv5_4/incep/1_0
I0502 11:39:01.278226 31177 net.cpp:395] conv5_4/incep/1_0/relu -> conv5_4/incep/1_0 (in-place)
I0502 11:39:01.278231 31177 net.cpp:150] Setting up conv5_4/incep/1_0/relu
I0502 11:39:01.278235 31177 net.cpp:157] Top shape: 1 192 20 33 (126720)
I0502 11:39:01.278239 31177 net.cpp:165] Memory required for data: 783298584
I0502 11:39:01.278240 31177 layer_factory.hpp:77] Creating layer conv5_4/incep/2_reduce/conv
I0502 11:39:01.278246 31177 net.cpp:100] Creating Layer conv5_4/incep/2_reduce/conv
I0502 11:39:01.278249 31177 net.cpp:434] conv5_4/incep/2_reduce/conv <- conv5_3_conv5_3_0_split_2
I0502 11:39:01.278254 31177 net.cpp:408] conv5_4/incep/2_reduce/conv -> conv5_4/incep/2_reduce
I0502 11:39:01.278337 31177 net.cpp:150] Setting up conv5_4/incep/2_reduce/conv
I0502 11:39:01.278343 31177 net.cpp:157] Top shape: 1 32 20 33 (21120)
I0502 11:39:01.278347 31177 net.cpp:165] Memory required for data: 783383064
I0502 11:39:01.278352 31177 layer_factory.hpp:77] Creating layer conv5_4/incep/2_reduce/relu
I0502 11:39:01.278357 31177 net.cpp:100] Creating Layer conv5_4/incep/2_reduce/relu
I0502 11:39:01.278359 31177 net.cpp:434] conv5_4/incep/2_reduce/relu <- conv5_4/incep/2_reduce
I0502 11:39:01.278363 31177 net.cpp:395] conv5_4/incep/2_reduce/relu -> conv5_4/incep/2_reduce (in-place)
I0502 11:39:01.278369 31177 net.cpp:150] Setting up conv5_4/incep/2_reduce/relu
I0502 11:39:01.278373 31177 net.cpp:157] Top shape: 1 32 20 33 (21120)
I0502 11:39:01.278374 31177 net.cpp:165] Memory required for data: 783467544
I0502 11:39:01.278376 31177 layer_factory.hpp:77] Creating layer conv5_4/incep/2_0/conv
I0502 11:39:01.278380 31177 net.cpp:100] Creating Layer conv5_4/incep/2_0/conv
I0502 11:39:01.278383 31177 net.cpp:434] conv5_4/incep/2_0/conv <- conv5_4/incep/2_reduce
I0502 11:39:01.278385 31177 net.cpp:408] conv5_4/incep/2_0/conv -> conv5_4/incep/2_0
I0502 11:39:01.278481 31177 net.cpp:150] Setting up conv5_4/incep/2_0/conv
I0502 11:39:01.278484 31177 net.cpp:157] Top shape: 1 64 20 33 (42240)
I0502 11:39:01.278486 31177 net.cpp:165] Memory required for data: 783636504
I0502 11:39:01.278489 31177 layer_factory.hpp:77] Creating layer conv5_4/incep/2_0/relu
I0502 11:39:01.278492 31177 net.cpp:100] Creating Layer conv5_4/incep/2_0/relu
I0502 11:39:01.278494 31177 net.cpp:434] conv5_4/incep/2_0/relu <- conv5_4/incep/2_0
I0502 11:39:01.278496 31177 net.cpp:395] conv5_4/incep/2_0/relu -> conv5_4/incep/2_0 (in-place)
I0502 11:39:01.278499 31177 net.cpp:150] Setting up conv5_4/incep/2_0/relu
I0502 11:39:01.278501 31177 net.cpp:157] Top shape: 1 64 20 33 (42240)
I0502 11:39:01.278502 31177 net.cpp:165] Memory required for data: 783805464
I0502 11:39:01.278504 31177 layer_factory.hpp:77] Creating layer conv5_4/incep/2_1/conv
I0502 11:39:01.278508 31177 net.cpp:100] Creating Layer conv5_4/incep/2_1/conv
I0502 11:39:01.278511 31177 net.cpp:434] conv5_4/incep/2_1/conv <- conv5_4/incep/2_0
I0502 11:39:01.278512 31177 net.cpp:408] conv5_4/incep/2_1/conv -> conv5_4/incep/2_1
I0502 11:39:01.278689 31177 net.cpp:150] Setting up conv5_4/incep/2_1/conv
I0502 11:39:01.278692 31177 net.cpp:157] Top shape: 1 64 20 33 (42240)
I0502 11:39:01.278694 31177 net.cpp:165] Memory required for data: 783974424
I0502 11:39:01.278697 31177 layer_factory.hpp:77] Creating layer conv5_4/incep/2_1/relu
I0502 11:39:01.278700 31177 net.cpp:100] Creating Layer conv5_4/incep/2_1/relu
I0502 11:39:01.278702 31177 net.cpp:434] conv5_4/incep/2_1/relu <- conv5_4/incep/2_1
I0502 11:39:01.278704 31177 net.cpp:395] conv5_4/incep/2_1/relu -> conv5_4/incep/2_1 (in-place)
I0502 11:39:01.278707 31177 net.cpp:150] Setting up conv5_4/incep/2_1/relu
I0502 11:39:01.278708 31177 net.cpp:157] Top shape: 1 64 20 33 (42240)
I0502 11:39:01.278710 31177 net.cpp:165] Memory required for data: 784143384
I0502 11:39:01.278712 31177 layer_factory.hpp:77] Creating layer conv5_4/incep
I0502 11:39:01.278715 31177 net.cpp:100] Creating Layer conv5_4/incep
I0502 11:39:01.278717 31177 net.cpp:434] conv5_4/incep <- conv5_4/incep/0
I0502 11:39:01.278719 31177 net.cpp:434] conv5_4/incep <- conv5_4/incep/1_0
I0502 11:39:01.278722 31177 net.cpp:434] conv5_4/incep <- conv5_4/incep/2_1
I0502 11:39:01.278724 31177 net.cpp:408] conv5_4/incep -> conv5_4/incep
I0502 11:39:01.278885 31177 net.cpp:150] Setting up conv5_4/incep
I0502 11:39:01.278894 31177 net.cpp:157] Top shape: 1 320 20 33 (211200)
I0502 11:39:01.278898 31177 net.cpp:165] Memory required for data: 784988184
I0502 11:39:01.278900 31177 layer_factory.hpp:77] Creating layer conv5_4/out/conv
I0502 11:39:01.278909 31177 net.cpp:100] Creating Layer conv5_4/out/conv
I0502 11:39:01.278913 31177 net.cpp:434] conv5_4/out/conv <- conv5_4/incep
I0502 11:39:01.278918 31177 net.cpp:408] conv5_4/out/conv -> conv5_4/out
I0502 11:39:01.279495 31177 net.cpp:150] Setting up conv5_4/out/conv
I0502 11:39:01.279498 31177 net.cpp:157] Top shape: 1 384 20 33 (253440)
I0502 11:39:01.279500 31177 net.cpp:165] Memory required for data: 786001944
I0502 11:39:01.279503 31177 layer_factory.hpp:77] Creating layer conv5_4
I0502 11:39:01.279508 31177 net.cpp:100] Creating Layer conv5_4
I0502 11:39:01.279510 31177 net.cpp:434] conv5_4 <- conv5_4/out
I0502 11:39:01.279512 31177 net.cpp:434] conv5_4 <- conv5_3_conv5_3_0_split_3
I0502 11:39:01.279515 31177 net.cpp:408] conv5_4 -> conv5_4
I0502 11:39:01.279520 31177 net.cpp:150] Setting up conv5_4
I0502 11:39:01.279523 31177 net.cpp:157] Top shape: 1 384 20 33 (253440)
I0502 11:39:01.279525 31177 net.cpp:165] Memory required for data: 787015704
I0502 11:39:01.279526 31177 layer_factory.hpp:77] Creating layer downsample
I0502 11:39:01.279530 31177 net.cpp:100] Creating Layer downsample
I0502 11:39:01.279532 31177 net.cpp:434] downsample <- conv3_4_conv3_4_0_split_5
I0502 11:39:01.279536 31177 net.cpp:408] downsample -> downsample
I0502 11:39:01.279541 31177 net.cpp:150] Setting up downsample
I0502 11:39:01.279542 31177 net.cpp:157] Top shape: 1 128 40 66 (337920)
I0502 11:39:01.279544 31177 net.cpp:165] Memory required for data: 788367384
I0502 11:39:01.279546 31177 layer_factory.hpp:77] Creating layer upsample
I0502 11:39:01.279551 31177 net.cpp:100] Creating Layer upsample
I0502 11:39:01.279552 31177 net.cpp:434] upsample <- conv5_4
I0502 11:39:01.279554 31177 net.cpp:408] upsample -> upsample
I0502 11:39:01.279741 31177 net.cpp:150] Setting up upsample
I0502 11:39:01.279742 31177 net.cpp:157] Top shape: 1 384 40 66 (1013760)
I0502 11:39:01.279744 31177 net.cpp:165] Memory required for data: 792422424
I0502 11:39:01.279747 31177 layer_factory.hpp:77] Creating layer concat
I0502 11:39:01.279749 31177 net.cpp:100] Creating Layer concat
I0502 11:39:01.279752 31177 net.cpp:434] concat <- downsample
I0502 11:39:01.279754 31177 net.cpp:434] concat <- conv4_4_conv4_4_0_split_5
I0502 11:39:01.279757 31177 net.cpp:434] concat <- upsample
I0502 11:39:01.279759 31177 net.cpp:408] concat -> concat
I0502 11:39:01.279763 31177 net.cpp:150] Setting up concat
I0502 11:39:01.279765 31177 net.cpp:157] Top shape: 1 768 40 66 (2027520)
I0502 11:39:01.279767 31177 net.cpp:165] Memory required for data: 800532504
I0502 11:39:01.279768 31177 layer_factory.hpp:77] Creating layer concat_concat_0_split
I0502 11:39:01.279772 31177 net.cpp:100] Creating Layer concat_concat_0_split
I0502 11:39:01.279774 31177 net.cpp:434] concat_concat_0_split <- concat
I0502 11:39:01.279778 31177 net.cpp:408] concat_concat_0_split -> concat_concat_0_split_0
I0502 11:39:01.279780 31177 net.cpp:408] concat_concat_0_split -> concat_concat_0_split_1
I0502 11:39:01.279783 31177 net.cpp:150] Setting up concat_concat_0_split
I0502 11:39:01.279786 31177 net.cpp:157] Top shape: 1 768 40 66 (2027520)
I0502 11:39:01.279788 31177 net.cpp:157] Top shape: 1 768 40 66 (2027520)
I0502 11:39:01.279789 31177 net.cpp:165] Memory required for data: 816752664
I0502 11:39:01.279791 31177 layer_factory.hpp:77] Creating layer convf_rpn
I0502 11:39:01.279796 31177 net.cpp:100] Creating Layer convf_rpn
I0502 11:39:01.279798 31177 net.cpp:434] convf_rpn <- concat_concat_0_split_0
I0502 11:39:01.279801 31177 net.cpp:408] convf_rpn -> convf_rpn
I0502 11:39:01.280264 31177 net.cpp:150] Setting up convf_rpn
I0502 11:39:01.280267 31177 net.cpp:157] Top shape: 1 128 40 66 (337920)
I0502 11:39:01.280269 31177 net.cpp:165] Memory required for data: 818104344
I0502 11:39:01.280272 31177 layer_factory.hpp:77] Creating layer reluf_rpn
I0502 11:39:01.280277 31177 net.cpp:100] Creating Layer reluf_rpn
I0502 11:39:01.280278 31177 net.cpp:434] reluf_rpn <- convf_rpn
I0502 11:39:01.280280 31177 net.cpp:395] reluf_rpn -> convf_rpn (in-place)
I0502 11:39:01.280283 31177 net.cpp:150] Setting up reluf_rpn
I0502 11:39:01.280285 31177 net.cpp:157] Top shape: 1 128 40 66 (337920)
I0502 11:39:01.280287 31177 net.cpp:165] Memory required for data: 819456024
I0502 11:39:01.280289 31177 layer_factory.hpp:77] Creating layer convf_rpn_reluf_rpn_0_split
I0502 11:39:01.280292 31177 net.cpp:100] Creating Layer convf_rpn_reluf_rpn_0_split
I0502 11:39:01.280293 31177 net.cpp:434] convf_rpn_reluf_rpn_0_split <- convf_rpn
I0502 11:39:01.280297 31177 net.cpp:408] convf_rpn_reluf_rpn_0_split -> convf_rpn_reluf_rpn_0_split_0
I0502 11:39:01.280300 31177 net.cpp:408] convf_rpn_reluf_rpn_0_split -> convf_rpn_reluf_rpn_0_split_1
I0502 11:39:01.280303 31177 net.cpp:150] Setting up convf_rpn_reluf_rpn_0_split
I0502 11:39:01.280305 31177 net.cpp:157] Top shape: 1 128 40 66 (337920)
I0502 11:39:01.280308 31177 net.cpp:157] Top shape: 1 128 40 66 (337920)
I0502 11:39:01.280308 31177 net.cpp:165] Memory required for data: 822159384
I0502 11:39:01.280310 31177 layer_factory.hpp:77] Creating layer convf_2
I0502 11:39:01.280315 31177 net.cpp:100] Creating Layer convf_2
I0502 11:39:01.280318 31177 net.cpp:434] convf_2 <- concat_concat_0_split_1
I0502 11:39:01.280321 31177 net.cpp:408] convf_2 -> convf_2
I0502 11:39:01.281698 31177 net.cpp:150] Setting up convf_2
I0502 11:39:01.281705 31177 net.cpp:157] Top shape: 1 384 40 66 (1013760)
I0502 11:39:01.281708 31177 net.cpp:165] Memory required for data: 826214424
I0502 11:39:01.281710 31177 layer_factory.hpp:77] Creating layer reluf_2
I0502 11:39:01.281714 31177 net.cpp:100] Creating Layer reluf_2
I0502 11:39:01.281718 31177 net.cpp:434] reluf_2 <- convf_2
I0502 11:39:01.281720 31177 net.cpp:395] reluf_2 -> convf_2 (in-place)
I0502 11:39:01.281723 31177 net.cpp:150] Setting up reluf_2
I0502 11:39:01.281725 31177 net.cpp:157] Top shape: 1 384 40 66 (1013760)
I0502 11:39:01.281726 31177 net.cpp:165] Memory required for data: 830269464
I0502 11:39:01.281728 31177 layer_factory.hpp:77] Creating layer concat_convf
I0502 11:39:01.281733 31177 net.cpp:100] Creating Layer concat_convf
I0502 11:39:01.281734 31177 net.cpp:434] concat_convf <- convf_rpn_reluf_rpn_0_split_0
I0502 11:39:01.281736 31177 net.cpp:434] concat_convf <- convf_2
I0502 11:39:01.281739 31177 net.cpp:408] concat_convf -> convf
I0502 11:39:01.281744 31177 net.cpp:150] Setting up concat_convf
I0502 11:39:01.281745 31177 net.cpp:157] Top shape: 1 512 40 66 (1351680)
I0502 11:39:01.281747 31177 net.cpp:165] Memory required for data: 835676184
I0502 11:39:01.281749 31177 layer_factory.hpp:77] Creating layer rpn_conv1
I0502 11:39:01.281754 31177 net.cpp:100] Creating Layer rpn_conv1
I0502 11:39:01.281756 31177 net.cpp:434] rpn_conv1 <- convf_rpn_reluf_rpn_0_split_1
I0502 11:39:01.281759 31177 net.cpp:408] rpn_conv1 -> rpn_conv1
I0502 11:39:01.290289 31177 net.cpp:150] Setting up rpn_conv1
I0502 11:39:01.290297 31177 net.cpp:157] Top shape: 1 384 40 66 (1013760)
I0502 11:39:01.290298 31177 net.cpp:165] Memory required for data: 839731224
I0502 11:39:01.290302 31177 layer_factory.hpp:77] Creating layer rpn_relu1
I0502 11:39:01.290307 31177 net.cpp:100] Creating Layer rpn_relu1
I0502 11:39:01.290308 31177 net.cpp:434] rpn_relu1 <- rpn_conv1
I0502 11:39:01.290310 31177 net.cpp:395] rpn_relu1 -> rpn_conv1 (in-place)
I0502 11:39:01.290313 31177 net.cpp:150] Setting up rpn_relu1
I0502 11:39:01.290316 31177 net.cpp:157] Top shape: 1 384 40 66 (1013760)
I0502 11:39:01.290318 31177 net.cpp:165] Memory required for data: 843786264
I0502 11:39:01.290319 31177 layer_factory.hpp:77] Creating layer rpn_conv1_rpn_relu1_0_split
I0502 11:39:01.290323 31177 net.cpp:100] Creating Layer rpn_conv1_rpn_relu1_0_split
I0502 11:39:01.290324 31177 net.cpp:434] rpn_conv1_rpn_relu1_0_split <- rpn_conv1
I0502 11:39:01.308015 31177 net.cpp:408] rpn_conv1_rpn_relu1_0_split -> rpn_conv1_rpn_relu1_0_split_0
I0502 11:39:01.308027 31177 net.cpp:408] rpn_conv1_rpn_relu1_0_split -> rpn_conv1_rpn_relu1_0_split_1
I0502 11:39:01.308033 31177 net.cpp:150] Setting up rpn_conv1_rpn_relu1_0_split
I0502 11:39:01.308040 31177 net.cpp:157] Top shape: 1 384 40 66 (1013760)
I0502 11:39:01.308043 31177 net.cpp:157] Top shape: 1 384 40 66 (1013760)
I0502 11:39:01.308044 31177 net.cpp:165] Memory required for data: 851896344
I0502 11:39:01.308046 31177 layer_factory.hpp:77] Creating layer rpn_cls_score
I0502 11:39:01.308053 31177 net.cpp:100] Creating Layer rpn_cls_score
I0502 11:39:01.308055 31177 net.cpp:434] rpn_cls_score <- rpn_conv1_rpn_relu1_0_split_0
I0502 11:39:01.308058 31177 net.cpp:408] rpn_cls_score -> rpn_cls_score
I0502 11:39:01.308446 31177 net.cpp:150] Setting up rpn_cls_score
I0502 11:39:01.308450 31177 net.cpp:157] Top shape: 1 50 40 66 (132000)
I0502 11:39:01.308451 31177 net.cpp:165] Memory required for data: 852424344
I0502 11:39:01.308455 31177 layer_factory.hpp:77] Creating layer rpn_bbox_pred
I0502 11:39:01.308459 31177 net.cpp:100] Creating Layer rpn_bbox_pred
I0502 11:39:01.308461 31177 net.cpp:434] rpn_bbox_pred <- rpn_conv1_rpn_relu1_0_split_1
I0502 11:39:01.308465 31177 net.cpp:408] rpn_bbox_pred -> rpn_bbox_pred
I0502 11:39:01.309258 31177 net.cpp:150] Setting up rpn_bbox_pred
I0502 11:39:01.309264 31177 net.cpp:157] Top shape: 1 100 40 66 (264000)
I0502 11:39:01.309267 31177 net.cpp:165] Memory required for data: 853480344
I0502 11:39:01.309270 31177 layer_factory.hpp:77] Creating layer rpn_cls_score_reshape
I0502 11:39:01.309276 31177 net.cpp:100] Creating Layer rpn_cls_score_reshape
I0502 11:39:01.309279 31177 net.cpp:434] rpn_cls_score_reshape <- rpn_cls_score
I0502 11:39:01.309283 31177 net.cpp:408] rpn_cls_score_reshape -> rpn_cls_score_reshape
I0502 11:39:01.309288 31177 net.cpp:150] Setting up rpn_cls_score_reshape
I0502 11:39:01.309290 31177 net.cpp:157] Top shape: 1 2 1000 66 (132000)
I0502 11:39:01.309293 31177 net.cpp:165] Memory required for data: 854008344
I0502 11:39:01.309293 31177 layer_factory.hpp:77] Creating layer rpn_cls_prob
I0502 11:39:01.309298 31177 net.cpp:100] Creating Layer rpn_cls_prob
I0502 11:39:01.309299 31177 net.cpp:434] rpn_cls_prob <- rpn_cls_score_reshape
I0502 11:39:01.309303 31177 net.cpp:408] rpn_cls_prob -> rpn_cls_prob
I0502 11:39:01.309306 31177 net.cpp:150] Setting up rpn_cls_prob
I0502 11:39:01.309309 31177 net.cpp:157] Top shape: 1 2 1000 66 (132000)
I0502 11:39:01.309310 31177 net.cpp:165] Memory required for data: 854536344
I0502 11:39:01.309312 31177 layer_factory.hpp:77] Creating layer rpn_cls_prob_reshape
I0502 11:39:01.309315 31177 net.cpp:100] Creating Layer rpn_cls_prob_reshape
I0502 11:39:01.309317 31177 net.cpp:434] rpn_cls_prob_reshape <- rpn_cls_prob
I0502 11:39:01.309320 31177 net.cpp:408] rpn_cls_prob_reshape -> rpn_cls_prob_reshape
I0502 11:39:01.309324 31177 net.cpp:150] Setting up rpn_cls_prob_reshape
I0502 11:39:01.309326 31177 net.cpp:157] Top shape: 1 50 40 66 (132000)
I0502 11:39:01.309327 31177 net.cpp:165] Memory required for data: 855064344
I0502 11:39:01.309329 31177 layer_factory.hpp:77] Creating layer proposal
I0502 11:39:01.309340 31177 net.cpp:100] Creating Layer proposal
I0502 11:39:01.309341 31177 net.cpp:434] proposal <- rpn_cls_prob_reshape
I0502 11:39:01.309343 31177 net.cpp:434] proposal <- rpn_bbox_pred
I0502 11:39:01.309345 31177 net.cpp:434] proposal <- im_info
I0502 11:39:01.309348 31177 net.cpp:408] proposal -> rois
I0502 11:39:01.309352 31177 net.cpp:408] proposal -> scores
I0502 11:39:01.309358 31177 net.cpp:150] Setting up proposal
I0502 11:39:01.309360 31177 net.cpp:157] Top shape: 200 5 (1000)
I0502 11:39:01.309362 31177 net.cpp:157] Top shape: 200 (200)
I0502 11:39:01.309365 31177 net.cpp:165] Memory required for data: 855069144
I0502 11:39:01.309366 31177 layer_factory.hpp:77] Creating layer roi_pool_conv5
I0502 11:39:01.309370 31177 net.cpp:100] Creating Layer roi_pool_conv5
I0502 11:39:01.309372 31177 net.cpp:434] roi_pool_conv5 <- convf
I0502 11:39:01.309375 31177 net.cpp:434] roi_pool_conv5 <- rois
I0502 11:39:01.309377 31177 net.cpp:408] roi_pool_conv5 -> roi_pool_conv5
I0502 11:39:01.309381 31177 roi_pooling_layer.cpp:34] Spatial scale: 0.0625
I0502 11:39:01.309389 31177 net.cpp:150] Setting up roi_pool_conv5
I0502 11:39:01.309392 31177 net.cpp:157] Top shape: 200 512 6 6 (3686400)
I0502 11:39:01.309393 31177 net.cpp:165] Memory required for data: 869814744
I0502 11:39:01.309396 31177 layer_factory.hpp:77] Creating layer fc6_L
I0502 11:39:01.309399 31177 net.cpp:100] Creating Layer fc6_L
I0502 11:39:01.309402 31177 net.cpp:434] fc6_L <- roi_pool_conv5
I0502 11:39:01.309409 31177 net.cpp:408] fc6_L -> fc6_L
I0502 11:39:01.316800 31177 net.cpp:150] Setting up fc6_L
I0502 11:39:01.316820 31177 net.cpp:157] Top shape: 200 512 (102400)
I0502 11:39:01.316823 31177 net.cpp:165] Memory required for data: 870224344
I0502 11:39:01.316828 31177 layer_factory.hpp:77] Creating layer fc6_U
I0502 11:39:01.316838 31177 net.cpp:100] Creating Layer fc6_U
I0502 11:39:01.316841 31177 net.cpp:434] fc6_U <- fc6_L
I0502 11:39:01.316845 31177 net.cpp:408] fc6_U -> fc6_U
I0502 11:39:01.318235 31177 net.cpp:150] Setting up fc6_U
I0502 11:39:01.318250 31177 net.cpp:157] Top shape: 200 4096 (819200)
I0502 11:39:01.318253 31177 net.cpp:165] Memory required for data: 873501144
I0502 11:39:01.318258 31177 layer_factory.hpp:77] Creating layer fc6/relu
I0502 11:39:01.318264 31177 net.cpp:100] Creating Layer fc6/relu
I0502 11:39:01.318267 31177 net.cpp:434] fc6/relu <- fc6_U
I0502 11:39:01.318271 31177 net.cpp:395] fc6/relu -> fc6_U (in-place)
I0502 11:39:01.318275 31177 net.cpp:150] Setting up fc6/relu
I0502 11:39:01.318279 31177 net.cpp:157] Top shape: 200 4096 (819200)
I0502 11:39:01.318279 31177 net.cpp:165] Memory required for data: 876777944
I0502 11:39:01.318281 31177 layer_factory.hpp:77] Creating layer fc7_L
I0502 11:39:01.318284 31177 net.cpp:100] Creating Layer fc7_L
I0502 11:39:01.318286 31177 net.cpp:434] fc7_L <- fc6_U
I0502 11:39:01.318289 31177 net.cpp:408] fc7_L -> fc7_L
I0502 11:39:01.319744 31177 net.cpp:150] Setting up fc7_L
I0502 11:39:01.319756 31177 net.cpp:157] Top shape: 200 512 (102400)
I0502 11:39:01.319757 31177 net.cpp:165] Memory required for data: 877187544
I0502 11:39:01.319761 31177 layer_factory.hpp:77] Creating layer fc7_U
I0502 11:39:01.319766 31177 net.cpp:100] Creating Layer fc7_U
I0502 11:39:01.319770 31177 net.cpp:434] fc7_U <- fc7_L
I0502 11:39:01.319777 31177 net.cpp:408] fc7_U -> fc7_U
I0502 11:39:01.321254 31177 net.cpp:150] Setting up fc7_U
I0502 11:39:01.321267 31177 net.cpp:157] Top shape: 200 4096 (819200)
I0502 11:39:01.321269 31177 net.cpp:165] Memory required for data: 880464344
I0502 11:39:01.321275 31177 layer_factory.hpp:77] Creating layer fc7/relu
I0502 11:39:01.321280 31177 net.cpp:100] Creating Layer fc7/relu
I0502 11:39:01.321285 31177 net.cpp:434] fc7/relu <- fc7_U
I0502 11:39:01.321288 31177 net.cpp:395] fc7/relu -> fc7_U (in-place)
I0502 11:39:01.321292 31177 net.cpp:150] Setting up fc7/relu
I0502 11:39:01.321295 31177 net.cpp:157] Top shape: 200 4096 (819200)
I0502 11:39:01.321296 31177 net.cpp:165] Memory required for data: 883741144
I0502 11:39:01.321297 31177 layer_factory.hpp:77] Creating layer fc7_U_fc7/relu_0_split
I0502 11:39:01.321300 31177 net.cpp:100] Creating Layer fc7_U_fc7/relu_0_split
I0502 11:39:01.321302 31177 net.cpp:434] fc7_U_fc7/relu_0_split <- fc7_U
I0502 11:39:01.321306 31177 net.cpp:408] fc7_U_fc7/relu_0_split -> fc7_U_fc7/relu_0_split_0
I0502 11:39:01.321310 31177 net.cpp:408] fc7_U_fc7/relu_0_split -> fc7_U_fc7/relu_0_split_1
I0502 11:39:01.321313 31177 net.cpp:150] Setting up fc7_U_fc7/relu_0_split
I0502 11:39:01.321316 31177 net.cpp:157] Top shape: 200 4096 (819200)
I0502 11:39:01.321318 31177 net.cpp:157] Top shape: 200 4096 (819200)
I0502 11:39:01.321319 31177 net.cpp:165] Memory required for data: 890294744
I0502 11:39:01.321321 31177 layer_factory.hpp:77] Creating layer cls_score
I0502 11:39:01.339098 31177 net.cpp:100] Creating Layer cls_score
I0502 11:39:01.339108 31177 net.cpp:434] cls_score <- fc7_U_fc7/relu_0_split_0
I0502 11:39:01.339119 31177 net.cpp:408] cls_score -> cls_score
I0502 11:39:01.340834 31177 net.cpp:150] Setting up cls_score
I0502 11:39:01.340842 31177 net.cpp:157] Top shape: 200 21 (4200)
I0502 11:39:01.340844 31177 net.cpp:165] Memory required for data: 890311544
I0502 11:39:01.340848 31177 layer_factory.hpp:77] Creating layer bbox_pred
I0502 11:39:01.340854 31177 net.cpp:100] Creating Layer bbox_pred
I0502 11:39:01.340857 31177 net.cpp:434] bbox_pred <- fc7_U_fc7/relu_0_split_1
I0502 11:39:01.340862 31177 net.cpp:408] bbox_pred -> bbox_pred
I0502 11:39:01.347542 31177 net.cpp:150] Setting up bbox_pred
I0502 11:39:01.347555 31177 net.cpp:157] Top shape: 200 84 (16800)
I0502 11:39:01.347558 31177 net.cpp:165] Memory required for data: 890378744
I0502 11:39:01.347563 31177 layer_factory.hpp:77] Creating layer cls_prob
I0502 11:39:01.347568 31177 net.cpp:100] Creating Layer cls_prob
I0502 11:39:01.347571 31177 net.cpp:434] cls_prob <- cls_score
I0502 11:39:01.347575 31177 net.cpp:408] cls_prob -> cls_prob
I0502 11:39:01.347584 31177 net.cpp:150] Setting up cls_prob
I0502 11:39:01.347585 31177 net.cpp:157] Top shape: 200 21 (4200)
I0502 11:39:01.347587 31177 net.cpp:165] Memory required for data: 890395544
I0502 11:39:01.347589 31177 net.cpp:228] cls_prob does not need backward computation.
I0502 11:39:01.347591 31177 net.cpp:228] bbox_pred does not need backward computation.
I0502 11:39:01.347594 31177 net.cpp:228] cls_score does not need backward computation.
I0502 11:39:01.347595 31177 net.cpp:228] fc7_U_fc7/relu_0_split does not need backward computation.
…
